data.pth (torch, 15999 bytes, 6 tensors)

l1.weight f4 [8, 270]
0.27183312 -0.021282068 -0.6031793 -0.65950376 0.5467513 -0.52658135 0.51946545 -0.6317789
-0.40176332 -0.5370341 0.79292035 -0.33110482 -0.16371594 0.030301051 -0.42526007 -0.45488518
0.89302593 -0.22331038 0.5159722 0.51431644 -0.251187 0.94401366 -0.5986246 -0.29669157
1.1704189 -0.19144097 -0.36675864 0.34613252 -0.44975963 0.51278305 0.63434696 0.746502
0.7047275 -0.16487823 2.1212137 0.21545509 -0.07728957 -1.170862 -0.4115711 -0.4670744
-1.0315624 0.22949852 0.21482065 -0.3647671 -1.0148212 0.57742864 -0.18045014 -0.17289159
-0.27396956 -0.42730075 -0.6548447 0.071191266 -0.39615428 -0.3247615 1.3186294 0.69380194
0.53465664 1.4511255 -0.5415789 0.6278358 0.29054847 0.23082735 0.50627756 -0.05923051
0.39453164 0.86080956 0.006681382 -0.9047194 -0.51598763 -0.12010328 0.8495616 -0.15275426
-1.5317646 -0.099172466 0.7490739 0.5960886 0.16455656 0.32176363 -0.19935688 0.78663236
-0.6616262 -0.7110854 0.065320715 -0.21081585 0.3562473 0.13133673 0.4621035 -0.40964672
0.18601772 0.3764007 -0.51652575 0.85962933 0.75864464 -0.0630374 0.16499576 1.9552845
0.10228555 -0.12851119 0.8930668 0.4058859 1.0463998 0.017961105 0.013123818 -0.20405446
1.097481 1.0939469 0.22696407 0.29490465 -0.89841527 -0.17771064 0.1674028 -0.25926977
-0.9327548 -0.24703045 0.5102298 1.2186306 0.23368087 0.44718155 -0.6033691 -0.22862892
0.027974656 0.24688324 0.03319188 0.25002706 0.85597855 0.7761187 1.1237215 0.3273339
1.229096 0.35452726 -0.08148637 -0.09346862 -0.02127479 0.48987383 1.0183318 0.92287165
-0.1988701 0.88192856 0.054654706 -0.705175 0.5179649 0.020090662 0.30074975 -0.5621058
-0.86057127 0.7916524 -0.43990594 0.44369036 -0.184168 -0.8087842 -0.5809295 0.040828064
-1.2245344 -0.25567117 0.65137357 0.16727838 -0.16772297 -0.574363 0.0640721 -0.5202536
-0.46623823 1.7469627 -0.1151671 0.32218486 0.28211868 0.5831254 -0.19398236 -0.654245
0.5505887 0.7777668 -0.6565604 0.79030156 -0.21760868 0.25838095 0.06597626 0.3061817
-0.4149549 0.26560688 0.15242018 -0.34092003 0.014346243 0.10060144 -0.04027842 -0.7722686
0.73315996 -0.3011941 -0.7920846 -1.2513715 0.30672443 -0.12735595 -0.14736094 1.4290684
0.9058114 0.026792701 0.7544766 0.5590252 -0.03862522 0.23224367 0.5624451 -0.53615993
-0.41128972 -0.4354806 -0.7762727 -0.07556151 0.5037042 0.39834353 -0.5168928 -0.20346591
0.39490256 1.2715514 1.1870918 0.10825366 0.49132425 0.84800756 0.4859763 0.84774446
0.6733828 -1.1341851 -0.4084265 0.97372645 0.052449074 -0.32399544 -0.9024197 0.9343051
-1.4925474 -0.04184647 0.4840816 -0.47690982 -0.38747784 -1.1217469 0.4201231 0.013540061
0.5347081 0.34927043 0.81853426 0.28726065 0.11490328 0.14852732 -0.05595817 0.0013185904
-0.22804372 -0.19286692 -0.008488839 0.7516853 -0.32340425 2.211204 0.23425823 0.8128813
0.38929302 0.72564083 -1.357637 -0.27299407 0.54281306 0.4217381 -0.53173935 -0.12547565
00000000: b62d 8b3e bb57 aebc f569 1abf 3dd5 28bf
00000010: e5f7 0b3f 09ce 06bf b0fb 043f 43bc 21bf
00000020: ecb3 cdbe 117b 09bf d4fc 4a3f 9286 a9be
00000030: 27a5 27be e939 f83c b0bb d9be b6e6 e8be
00000040: 599d 643f 7aab 64be c116 043f 3eaa 033f
00000050: 959b 80be e1aa 713f 763f 19bf f5e7 97be
00000060: 49d0 953f 1a09 44be cac7 bbbe 4838 b13e
00000070: e546 e6be c045 033f 9064 223f c11a 3f3f
00000080: 0569 343f d7d5 28be f7c1 0740 42a0 5c3e
00000090: fe49 9ebd cede 95bf 72b9 d2be 6024 efbe
000000a0: 3d0a 84bf a901 6b3e f2f9 5b3e c1c2 babe
000000b0: a9e5 81bf 5dd2 133f ecc7 38be 7e0a 31be
000000c0: bd45 8cbe 2ac7 dabe e7a3 27bf bacc 913d
000000d0: bcd4 cabe 2447 a6be d9c8 a83f 019d 313f
000000e0: 42df 083f 7bbe b93f eaa4 0abf d9b9 203f
000000f0: c5c2 943e 015e 6c3e 689b 013f b19b 72bd
00000100: 0d00 ca3e 045e 5c3f 7fef da3b b19b 67bf
00000110: c417 04bf b5f8 f5bd de7c 593f 9d6b 1cbe
00000120: dd10 c4bf ef1a cbbd 4fc3 3f3f 4399 183f
00000130: 8481 283e 34be a43e 3624 4cbe bd60 493f
00000140: 5660 29bf b109 36bf dec6 853d 1ce0 57be
00000150: 0c66 b63e 237d 063e d498 ec3e 37bd d1be
00000160: 6e7b 3e3e 98b7 c03e 083b 04bf ab10 5c3f
00000170: 8936 423f c119 81bd a6f4 283e c346 fa3f
00000180: 167b d13d 7098 03be 07a0 643f 47d0 cf3e
00000190: 6ef0 853f 2b23 933c 4805 573c a7f3 50be
000001a0: 427a 8c3f 7406 8c3f 4569 683e befd 963e
000001b0: 8bfe 65bf c7f9 35be a46b 2b3e 02bf 84be
000001c0: 05c9 6ebf 8df5 7cbe 6c9e 023f 16fc 9b3f
000001d0: 0a4a 6f3e fbf4 e43e 6676 1abf b31d 6abe
000001e0: 1b2b e53c f6ce 7c3e 35f4 073d 8c03 803e
000001f0: 6921 5b3f b7af 463f 1bd6 8f3f 4f98 a73e
00000200: 0553 9d3f 9984 b53e 53e2 a6bd 7a6c bfbd
00000210: 7848 aebc bed0 fa3e b258 823f 5141 6c3f
00000220: 9aa4 4bbe 12c6 613f 9ddd 5f3d 5986 34bf
00000230: 5999 043f 2c95 a43c dffb 993e 2ae6 0fbf
00000240: 664e 5cbf bba9 4a3f 5a3b e1be 622b e33e
00000250: 8996 3cbe 7b0c 4fbf ccb7 14bf 543b 273d
00000260: 8bbd 9cbf 55e7 82be 6bc0 263f 064b 2b3e
00000270: 92bf 2bbe 7409 13bf 3c38 833d 572f 05bf
00000280: c7b6 eebe 799c df3f bbdc ebbd 6af5 a43e
00000290: dc71 903e b547 153f 50a3 46be 9a7c 27bf
000002a0: 62f3 0c3f ba1b 473f 5814 28bf 3451 4a3f
000002b0: cfd4 5ebe 824a 843e 901e 873d d9c3 9c3e
000002c0: f874 d4be a0fd 873e 0914 1c3e 128d aebe
000002d0: 810c 6b3c 2108 ce3d fcfa 24bd 65b3 45bf
000002e0: 5fb0 3b3f 1d36 9abe 0ec6 4abf f12c a0bf
000002f0: fc0a 9d3e 9969 02be c9e5 16be b7eb b63f
00000300: 42e3 673f 5e7c db3c 6125 413f 471c 0f3f
00000310: 7b35 1ebd 49d1 6d3e 67fc 0f3f c741 09bf
00000320: 9194 d2be 50f7 debe cfb9 46bf febf 9abd
00000330: c2f2 003f aff3 cb3e 1653 04bf 5e59 50be
00000340: ab30 ca3e 32c2 a23f a0f2 973f 18b4 dd3d
00000350: da8e fb3e 0617 593f e3d1 f83e c805 593f
00000360: d162 2c3f fa2c 91bf 471d d1be 2346 793f
00000370: d7d4 563d bbe2 a5be fa04 67bf 9e2e 6f3f
00000380: cb0b bfbf 3467 2bbd 8bd9 f73e 862d f4be
00000390: 7f63 c6be 6795 8fbf 601a d73e 22d7 5d3c
000003a0: a1e2 083f 93d3 b23e 768b 513f d413 933e
000003b0: 6952 eb3d 8c17 183e 6534 65bd 8dd4 ac3a
000003c0: 4b84 69be e87e 45be c514 0bbc 736e 403f
000003d0: 3e95 a5be 5e84 0d40 64e1 6f3e fd18 503f
000003e0: 6a51 c73e 99c3 393f 0dc7 adbf e1c5 8bbe
000003f0: ccf5 0a3f 0eee d73e 1220 08bf b07c 00be

l1.bias f4 [8]
1.077482 1.0941763 0.9382183 1.4554739 0.5227042 1.409032 0.2120872 1.4640356
00000000: eeea 893f f80d 8c3f 132f 703f f84c ba3f
00000010: f1cf 053f 295b b43f 632d 593e 8565 bb3f

l2.weight f4 [8, 8]
-0.8900068 -0.8192569 1.9845364 0.9034284 0.5318016 2.0377297 -0.46847138 2.3938804
1.7706556 1.7389182 0.04581796 2.169131 0.59952724 1.6475728 -0.86506087 -1.870166
0.73681307 1.9535226 1.6977237 -1.7221332 1.2859967 0.48161423 -0.49115276 0.75664324
2.9436204 1.0926546 -0.18497255 2.624378 0.4638049 -1.7463048 1.498601 0.74493885
-1.2783675 -0.914498 1.3339694 1.6646085 1.6962701 -0.051261555 1.9653032 -0.8803734
0.32502568 2.0547335 0.79838234 -1.0456982 1.3895068 -1.2133399 0.7039868 2.9914079
-0.061390802 -0.32950363 -0.18529242 -0.0245317 -0.2302148 -0.24148719 -0.07063251 -0.18348058
0.5240326 1.1670399 1.395347 -0.4666271 2.5454547 0.16165441 1.3755647 -1.6502831
00000000: 7cd7 63bf d2ba 51bf 4a05 fe3f 1547 673f
00000010: 2624 083f 2a6a 0240 7bdb efbe 5635 1940
00000020: d8a4 e23f df94 de3f 9dab 3b3d 0bd3 0a40
00000030: 9e7a 193f aae3 d23f a174 5dbf 9961 efbf
00000040: c89f 3c3f 070d fa3f 034f d93f dc6e dcbf
00000050: 8a9b a43f 2496 f63e 6078 fbbe 5fb3 413f
00000060: 4764 3c40 1bdc 8b3f 7269 3dbe cff5 2740
00000070: d677 ed3e ea86 dfbf 28d2 bf3f 50b4 3e3f
00000080: 8ca1 a3bf 8a1c 6abf 82bf aa3f e411 d53f
00000090: 611f d93f a3f7 51bd 0e8f fb3f 2760 61bf
000000a0: c469 a63e c180 0340 c962 4c3f 70d9 85bf
000000b0: 5cdb b13f b94e 9bbf 7b38 343f 3a73 3f40
000000c0: ec74 7bbd b3b4 a8be 4cbd 3dbe b4f6 c8bc
000000d0: 6ebd 6bbe 6b48 77be c7a7 90bd 55e2 3bbe
000000e0: 0027 063f 9061 953f bb9a b23f bfe9 eebe
000000f0: bbe8 2240 bc88 253e 8112 b03f 7a3c d3bf

l2.bias f4 [8]
0.4525447 1.1693368 0.6991864 0.18514511 0.101674 -0.086054526 -0.17934062 -0.77770203
00000000: f0b3 e73e d4ac 953f e1fd 323f ae96 3d3e
00000010: 753a d03d 5b3d b0bd 11a5 37be 7b17 47bf

l3.weight f4 [26, 8]
0.29518834 -0.8685456 0.7529451 -0.63500947 -3.128051 0.64030236 -0.23743705 -1.181931
0.075632006 0.21335636 0.85256135 0.06667827 -2.927367 -0.79146576 -0.081506945 -4.4949303
-1.6980706 -0.7458809 1.0866553 -1.4205258 -2.5381467 0.42156062 0.32165822 0.7663331
-1.4477667 -0.28715953 0.3466077 0.09670085 -3.2329483 -0.16780819 -0.022774681 -0.048606984
-0.45121017 0.66972977 -0.52010554 -0.7329938 -2.5167916 -2.0839202 -0.16696972 -0.50548136
-0.030559134 0.14899027 0.66091716 -2.181231 -0.95234543 -0.6489236 -0.20470783 -0.25217566
-3.5771334 0.34874353 -0.3871352 0.40758705 -1.9492675 -1.2084099 0.03452244 -0.47819453
-1.0812556 -0.37698653 -1.7318627 0.34877214 0.33197004 -1.6752977 0.07794495 -4.090231
-1.5700103 0.4352747 -1.7769037 0.72609633 -2.6028855 -1.9583259 0.02893891 -3.1092517
0.59172434 0.44825754 -2.7159438 -0.15054728 -2.0596478 -2.3965933 0.12551336 -3.9422998
-0.26490343 -0.9587991 -0.6082555 0.7485662 -1.4487013 0.6180086 -0.098882236 -3.850473
-0.6166947 -0.12637256 -0.7522845 -0.834644 0.33665857 -1.2141899 0.104081854 -0.526418
0.38750997 0.0025741218 -1.2157223 -0.580969 0.060630657 -1.6462259 -0.29610172 -2.680589
-0.36718422 -0.7392803 -0.03869921 0.2460164 -0.7709332 0.014184385 -0.0887109 -0.7986953
0.41003335 0.92456555 -1.2330632 -2.5803602 0.04012894 -1.7935345 -0.30910265 -1.7341573
0.35918534 -0.70262516 -0.2703682 -2.442235 0.5898938 -1.9809935 -0.17398442 -0.09324707
0.06893879 -2.2021132 0.54018515 -1.8690315 -0.13379249 0.19152261 0.11478803 0.20985298
-0.7343941 -3.0114567 0.188375 0.22406292 0.078941196 0.37393853 -0.22658558 -0.18815137
-0.9008355 -2.028744 -0.36276174 -0.31849036 0.7886562 -0.41147396 -0.19393961 -0.017396428
-1.6630702 -2.2157905 0.20601185 0.88449675 -1.5618737 0.8428953 0.25692028 -0.7852455
1.0780349 0.30681857 0.27084598 -1.8715224 -1.1828276 -0.5390595 0.19474275 -3.0238333
-2.3133364 -1.9073954 0.32646525 -0.10217122 -0.27818725 0.21205428 -0.0041968566 0.59908193
0.766621 -2.0285308 -0.002252637 -0.81446004 -0.19944093 0.50895923 -0.19759412 -3.3961267
0.5711926 -2.5912876 0.81168216 -2.7790127 -2.1707253 0.77703255 -0.24129677 -1.351726
-0.017691229 -1.5056822 -1.6360117 -0.16564202 0.8116723 -0.06529072 0.17364131 -2.9027376
-1.7834568 -1.2148255 -1.708129 0.22981912 0.533742 -0.6647668 0.103894636 -0.9814101
00000000: ed22 973e 0159 5ebf 03c1 403f fb8f 22bf
00000010: fd31 48c0 dbea 233f b322 73be 8449 97bf
00000020: f4e4 9a3d 177a 5a3e 7641 5a3f 9e8e 883d
00000030: fb59 3bc0 809d 4abf 1ded a6bd 78d6 8fc0
00000040: 615a d9bf 0df2 3ebf 8517 8b3f cad3 b5bf
00000050: ff70 22c0 cbd6 d73e 63b0 a43e 682e 443f
00000060: 6b50 b9bf 9306 93be 9176 b13e 180b c63d
00000070: a0e8 4ec0 e9d5 2bbe f891 babc 1e18 47bd
00000080: 0505 e7be 6973 2b3f a325 05bf 7ba5 3bbf
00000090: 1d13 21c0 f35e 05c0 1cfa 2abe 3a67 01bf
000000a0: 2657 fabc e890 183e de31 293f 4a99 0bc0
000000b0: e9cc 73bf db1f 26bf ee9e 51be 2b1d 81be
000000c0: c1ef 64c0 838e b23e 9636 c6be 40af d03e
000000d0: 9981 f9bf 2dad 9abf 6767 0d3d ead5 f4be
000000e0: 9566 8abf 6104 c1be adad ddbf 4392 b23e
000000f0: faf7 a93e 2870 d6bf 9aa1 9f3d 2ce3 82c0
00000100: 19f6 c8bf 53dc de3e 9571 e3bf 73e1 393f
00000110: ad95 26c0 6caa fabf 4b11 ed3c fbfd 46c0
00000120: 3f7b 173f 0382 e53e 06d2 2dc0 1129 1abe
00000130: 45d1 03c0 c961 19c0 9386 003e a44e 7cc0
00000140: 6ca1 87be dc73 75bf a2b6 1bbf 09a2 3f3f
00000150: 0b6f b9bf d035 1e3f c582 cabd 266e 76c0
00000160: b4df 1dbf cf67 01be b895 40bf 3bab 55bf
00000170: 835e ac3e 936a 9bbf de28 d53d 54c3 06bf
00000180: b567 c63e 99b2 283b ca9c 9bbf 62ba 14bf
00000190: da57 783d 88b7 d2bf a59a 97be c58e 2bc0
000001a0: 92ff bbbe 7941 3dbf 1083 1ebd b9eb 7b3e
000001b0: e15b 45bf 9f65 683c 0fae b5bd 4c77 4cbf
000001c0: e4ef d13e 54b0 6c3f 04d5 9dbf 9f24 25c0
000001d0: 3e5e 243d 8a92 e5bf b442 9ebe def8 ddbf
000001e0: 24e7 b73e 3edf 33bf b36d 8abe 944d 1cc0
000001f0: 4803 173f 3291 fdbf f928 32be 52f8 bebd
00000200: c82f 8d3d 6cef 0cc0 9349 0a3f 6d3c efbf
00000210: e600 09be 811e 443e fd15 eb3d b3e3 563e
00000220: 4001 3cbf b5bb 40c0 60e5 403e c070 653e
00000230: ecab a13d df74 bf3e 0d06 68be c1aa 40be
00000240: 289d 66bf f1d6 01c0 e8bb b9be 2b11 a3be
00000250: 5fe5 493f b7ac d2be 1b98 46be f482 8ebc
00000260: 7cdf d4bf 83cf 0dc0 c5f4 523e 616e 623f
00000270: 7aeb c7bf fdc7 573f 0e8b 833e d905 49bf
00000280: 0cfd 893f 5317 9d3e 53ac 8a3e 0c8e efbf
00000290: e566 97bf ceff 09bf a56a 473e 7c86 41c0
000002a0: b40d 14c0 8825 f4bf 7426 a73e 253f d1bd
000002b0: 8f6e 8ebe c224 593e c985 89bb 6f5d 193f
000002c0: 4641 443f 73d3 01c0 faa0 13bb 7480 50bf
000002d0: 3e3a 4cbe 274b 023f 1d56 4abe 245a 59c0
000002e0: ae39 123f a8d7 25c0 67ca 4f3f 58db 31c0
000002f0: 2aed 0ac0 9beb 463f 8016 77be 5c05 adbf
00000300: 32ed 90bc 32ba c0bf d568 d1bf 109e 29be
00000310: c1c9 4f3f 24b7 85bd 07cf 313e 74c6 39c0
00000320: 5048 e4bf 677f 9bbf f9a3 dabf b455 6b3e
00000330: 51a3 083f 282e 2abf b6c6 d43d b13d 7bbf

l3.bias f4 [26]
0.17869245 0.2262474 0.49617007 -0.30901965 0.31588367 0.18596785 -0.39610925 -0.19667666
0.42475915 -0.027105572 0.049434785 0.009964232 -0.079113245 -0.06283372 0.18135983 -0.13084319
0.16091019 -0.43919578 -0.556938 -0.25609043 0.4791037 -0.41391587 0.22659403 -0.2984911
0.24337505 0.21416196
00000000: 27fb 363e 66ad 673e 010a fe3e d337 9ebe
00000010: 81bb a13e 5b6e 3e3e d5ce cabe 9b65 49be
00000020: 087a d93e 810c debc 217c 4a3d 0541 233c
00000030: 2006 a2bd f7ae 80bd 64b6 393e c2fb 05be
00000040: a4c5 243e 45de e0be 7d93 0ebf 491e 83be
00000050: 154d f53e c8ec d3be 4408 683e d3d3 98be
00000060: 4f37 793e 464d 5b3e
