data.pth (torch, 16127 bytes, 6 tensors)

l1.weight f4 [8, 271]
0	0xbf4e37da	-0.8055397
1	0x3f370492	0.7149135
2	0x3e7181a0	0.23584604
3	0x3e1023a8	0.14076102
4	0x3e80a860	0.2512846
5	0x3d1e9379	0.03871486
6	0xbdab26e3	-0.083570264
7	0xbdca0bcd	-0.09865532
8	0xbeb629a2	-0.35578638
9	0x3f052b85	0.5201953
10	0xbc9f5a90	-0.019452363
11	0x3abb3b62	0.0014284665
12	0x3f75af3c	0.9597051
13	0xbd85480e	-0.06507884
14	0x3d84cbfe	0.06484221
15	0x3c9ee698	0.019397065
16	0xbf4b04a4	-0.79303956
17	0xbd4321e5	-0.047639746
18	0x3eb5f6db	0.35539898
19	0x3da4a0c1	0.08038474
20	0xbeec86a9	-0.46196488
21	0x3eb60123	0.35547742
22	0xbf168777	-0.5880045
23	0x3f94d5d9	1.1627761
24	0x3e72221a	0.23645821
25	0xbefc1b2d	-0.49239483
26	0x3f24cd63	0.64375895
27	0x3fe5396f	1.7908152
28	0x3f23ad4c	0.63936305
29	0x400bc8e9	2.1841376
30	0x3fd439ec	1.6580176
31	0x3eae463c	0.3403796
32	0x3f8f0df1	1.117613
33	0x3e83378e	0.25628322
34	0x3ea978ea	0.33100063
35	0x3f1cf27c	0.613075
36	0x3f0deabf	0.5543632
37	0x3f9a69a0	1.2063484
38	0xbea68175	-0.32520643
39	0x3e264e8d	0.16240902
40	0xbf343768	-0.70397043
41	0x3f4568b4	0.7711289
42	0x3f88932a	1.0669911
43	0xbfb887e3	-1.4416469
44	0x3e98ff22	0.2988215
45	0x3f7b7120	0.9821949
46	0x3f0484f4	0.5176537
47	0xbf0ac2ef	-0.54203695
48	0xbef95242	-0.4869557
49	0x3f8b3f8f	1.0878772
50	0xbf0cd567	-0.55013126
51	0x3f1d57a6	0.61461866
52	0xbea1ee4f	-0.31627128
53	0x3da39d65	0.07989005
54	0x3f38d8a5	0.72205573
55	0x3ec8e5be	0.3923778
56	0x3f0a9297	0.5412993
57	0xbe64e2bc	-0.22352117
58	0x3f4117b3	0.7542679
59	0x3f0ca07f	0.549324
60	0x3ded6d0e	0.11593066
61	0xbf470991	-0.7774897
62	0xbf2b1543	-0.6682932
63	0x3c26c52e	0.010178847
64	0x3f2a823b	0.66604966
65	0xbeb13f75	-0.34618726
66	0x3ebe7f26	0.37206382
67	0xbf1eab46	-0.6198009
68	0x3f0f1158	0.5588584
69	0x3ed1d06d	0.4097933
70	0xbe815504	-0.25260174
71	0x3ea6cf8f	0.3258023
72	0x3f1c76b5	0.6111863
73	0x3e8fdb17	0.2809684
74	0xbee4420a	-0.44581634
75	0x3f8d2f37	1.1030034
76	0xbf13bb81	-0.57707983
77	0xbe885d0b	-0.26633486
78	0xbf149d7b	-0.58052796
79	0xbe1e7727	-0.1547514
80	0xbee1acea	-0.44077235
81	0xbf4fc548	-0.811604
82	0xbf336630	-0.700778
83	0x3e47c573	0.19508915
84	0x3f35d55a	0.71028674
85	0xbe783685	-0.24239548
86	0x3f2ff7dd	0.68737584
87	0xbf661e7e	-0.8989028
88	0x3ef41699	0.4767349
89	0x3f33ea19	0.7027908
90	0xbf24fd82	-0.6444932
91	0x3fa243f1	1.2676984
92	0x3ec1641a	0.37771684
93	0x3ef2d156	0.47425336
94	0xbf356f61	-0.70873076
95	0x3ea23bf2	0.3168636
96	0x3eb21543	0.34781846
97	0x3d9598f5	0.07304565
98	0xbecad9f7	-0.3961942
99	0xbea61297	-0.32436058
100	0x3f56d6be	0.8392142
101	0xbf225dae	-0.63424194
102	0xbf136677	-0.57578224
103	0xbe8d58a8	-0.27606702
104	0x3f286964	0.65785813
105	0x3f20585e	0.6263484
106	0xbf4017e7	-0.7503647
107	0x3fb8468b	1.4396528
108	0xbeb7168b	-0.35759386
109	0x3f0da677	0.5533213
110	0x3f8f7c0b	1.120973
111	0xbf10edb2	-0.56612694
112	0x3e6de97e	0.23233601
113	0x3f11fc00	0.57025146
114	0x3e6b1436	0.22956929
115	0x3f5fa708	0.87364244
116	0xbe89575b	-0.2682446
117	0xbe905884	-0.28192532
118	0x3f4b9310	0.79521275
119	0x3f23bb21	0.6395741
120	0x3e84c64a	0.25932533
121	0xbd935bb2	-0.07195224
122	0x3ef3c85f	0.4761381
123	0x3eb6590c	0.35614812
124	0x3dde8dd3	0.108668946
125	0x3f09b696	0.5379423
126	0xbe4d2385	-0.20033081
127	0xbe1cdea3	-0.15319304
128	0xbeb37de4	-0.35056984
129	0x3f8e93be	1.1138837
130	0xbf4779d2	-0.7792026
131	0x3f6f5301	0.9348603
132	0xbea8aa90	-0.3294263
133	0x3f03ef2b	0.51536816
134	0x3f50611e	0.8139819
135	0xbaea9810	-0.0017898101
136	0x3e69a34f	0.22816204
137	0x3f2bb63a	0.6707493
138	0xbec2c705	-0.38042465
139	0x3fdcf42c	1.7262015
140	0xbca86c40	-0.02055943
141	0x3f2fece2	0.6872083
142	0x3fb00450	1.3751316
143	0xbea40ae6	-0.32039565
144	0x3e3dc0d1	0.18530585
145	0x3efd6ca2	0.49496943
146	0xbf7b625f	-0.9819698
147	0xbef65f67	-0.4811966
148	0x3f8d7196	1.1050289
149	0xbebb672b	-0.36602148
150	0x3e6575ae	0.22408172
151	0x3fb2c8c0	1.3967514
152	0xbf1eab50	-0.6198015
153	0xbdaea428	-0.08527404
154	0x3e98debf	0.29857442
155	0x3e9d8219	0.3076332
156	0xbebbcfe7	-0.36682054
157	0x3f2d7b55	0.67766315
158	0x3f5c702e	0.8610867
159	0x3f990c8f	1.1956958
160	0x3e83ab0d	0.2571644
161	0xbee4d3a4	-0.4469272
162	0xbf56714a	-0.83766615
163	0x3f0c1539	0.54719883
164	0xbec24639	-0.379442
165	0x3e719fd0	0.2359612
166	0x3f1e379a	0.6180359
167	0x3f3efec2	0.7460748
168	0x3ea5c9b5	0.32380453
169	0x3eec7163	0.46180257
170	0xbdd569a3	-0.10420539
171	0x3e0fdbe3	0.14048724
172	0xbecc1bb9	-0.398649
173	0xbf033909	-0.51258904
174	0x3f608fe6	0.8771957
175	0x3f7ce352	0.98784363
176	0x3eb5ed16	0.35532445
177	0x3e97d49b	0.29654393
178	0x3f5386f0	0.82627773
179	0xbe84e6c4	-0.2595731
180	0x3f5b5017	0.8566908
181	0xbf13831c	-0.5762193
182	0x3f520d89	0.82051903
183	0xbef0b40e	-0.4701237
184	0x3e7464b5	0.23866542
185	0x3e11fa2f	0.14255594
186	0x3f39957a	0.7249371
187	0x3f94edb1	1.1635038
188	0xbf7dbbcb	-0.99114674
189	0x3dbbf1fc	0.09177014
190	0x3d51e512	0.05124385
191	0x3f108565	0.56453544
192	0xbe472d30	-0.19450831
193	0xbe94aacf	-0.29036567
194	0x3f04d922	0.5189382
195	0x3f2e510f	0.68092436
196	0x3ecf5c23	0.40499982
197	0x3db702cc	0.0893608
198	0xbf1d6513	-0.6148235
199	0x3f0ee3bf	0.5581626
200	0xbef35d30	-0.47532034
201	0x3e87d561	0.26529983
202	0x3f20f10f	0.62867826
203	0x3ea2ae4f	0.31773612
204	0xbef7ed40	-0.48423195
205	0x3f811cb0	1.008688
206	0x3ec2d4c7	0.3805296
207	0x3f60e6e1	0.87852293
208	0xbeec0865	-0.46100155
209	0x3ef94575	0.48685804
210	0xbe7aa234	-0.24475938
211	0xbe618cdd	-0.22026391
212	0x3e853666	0.26018065
213	0x3e987a0d	0.29780617
214	0xbd9558f2	-0.072923556
215	0x3f4b730c	0.7947242
216	0xbea5b012	-0.32360893
217	0x3f8d10a8	1.1020708
218	0x3f84afe3	1.0366176
219	0xbe066719	-0.13125266
220	0x3f3edd9f	0.74556917
221	0x3eb36e08	0.35044885
222	0x3f34ef54	0.70677686
223	0x3e9635b1	0.29337838
224	0x3e209d7b	0.15685074
225	0x3e7747a1	0.24148418
226	0xbeaa4894	-0.33258498
227	0x3f16278a	0.5865408
228	0xbee7142c	-0.45132577
229	0x3d468188	0.048463374
230	0xbf4135de	-0.7547282
231	0x3c1a8faf	0.009433671
232	0x3f0014e3	0.5003187
233	0x3f1c849d	0.6113985
234	0x3fde1739	1.7350837
235	0x3fccb007	1.5991219
236	0x3f4a6155	0.79054767
237	0x3f65f90d	0.89833146
238	0x3f4ca8ce	0.79945076
239	0xbd854ccb	-0.06508788
240	0xbeadd552	-0.33951813
241	0xbf6dadf1	-0.9284354
242	0x3f2d3f64	0.6767485
243	0x3e598fe9	0.21246304
244	0x3f437168	0.7634492
245	0x3e9f5e49	0.3112662
246	0xbfe4db8a	-1.7879498
247	0xbee35ee1	-0.44408324
248	0x3e887f75	0.26659742
249	0x3d20f697	0.039297666
250	0xbe283c92	-0.16429356
251	0xbdf719ea	-0.120654896
252	0xbefcfd81	-0.49412158
253	0x3f0e2046	0.55517995
254	0xbebc9f68	-0.36840367
255	0xbf8fe0c3	-1.1240467

l1.bias f4 [8]
0	0x3ec7e222	0.39039713
1	0x3f0be4e2	0.5464612
2	0x3f0fc44a	0.5615889
3	0x3ede3427	0.43399164
4	0x3fcbb9d3	1.5916084
5	0x3f57b2e4	0.8425734
6	0xbd4bc742	-0.049750574
7	0x3f21e104	0.6323397

l2.weight f4 [8, 8]
0	0x3fa06747	1.2531518
1	0xbfdd6477	-1.7296284
2	0x3f1db5f0	0.6160574
3	0x3f8d21da	1.1025956
4	0x3f820a20	1.015934
5	0xbf48041e	-0.7813128
6	0x3f24f39a	0.64434206
7	0x402fb2d8	2.7452908
8	0xbe2eeee7	-0.17083322
9	0x3ea584a7	0.32327768
10	0x40292c35	2.6433232
11	0xbff45cc9	-1.9090816
12	0x3fa19add	1.2625386
13	0xbf13f66e	-0.57797897
14	0x3fdf6161	1.7451593
15	0x40020a3f	2.0318754
16	0x3f9958b9	1.1980201
17	0x402db817	2.714361
18	0xbeb4cf8c	-0.35314596
19	0x3f6f6719	0.9351669
20	0xbd5833c5	-0.052783746
21	0x4017bb68	2.3708134
22	0x40311a74	2.7672396
23	0xbefbc35a	-0.4917248
24	0xbea6599e	-0.32490247
25	0xbe65de90	-0.22448182
26	0xbe018c12	-0.12651089
27	0xbd16a67d	-0.03677987
28	0xbe1715a3	-0.14754348
29	0xbc8e3712	-0.017360244
30	0xbe94d0b8	-0.2906549
31	0xbea57ae8	-0.32320333
32	0x3fb0626b	1.3780035
33	0x3fd58d65	1.6683775
34	0x401116a3	2.2670066
35	0xc006a33b	-2.1037128
36	0xbfb30b8a	-1.3987896
37	0x3f32f595	0.6990598
38	0x40067f21	2.1015093
39	0x3fd6499e	1.6741216
40	0x3fbff581	1.4996797
41	0x3f6159e0	0.88027763
42	0x3ee52f4e	0.44762653
43	0x402b18fe	2.6734004
44	0xbf10522c	-0.56375384
45	0xbf610ec0	-0.8791313
46	0x3e9a162f	0.3009505
47	0x3e1d90ed	0.15387316
48	0x3f45419d	0.7705324
49	0x3fc947ea	1.5725071
50	0x400ca90d	2.197818
51	0x3f5e913f	0.8694038
52	0x4038f855	2.890157
53	0xbf88cf3b	-1.0688242
54	0xbf9ab972	-1.2087843
55	0xbf539db4	-0.8266251
56	0x40142cee	2.3152423
57	0xbfcc77fc	-1.5974116
58	0x3c9f4a04	0.019444473
59	0x3e66a5dc	0.22524208
60	0x3fb2f40c	1.3980727
61	0x40046ba9	2.069071
62	0xbeb02f2c	-0.3441099
63	0xbe376312	-0.17908886

l2.bias f4 [8]
0	0x3dbce981	0.09224225
1	0x3e1364c7	0.14393912
2	0xbee695f9	-0.45036295
3	0xbe855be5	-0.26046672
4	0xbf38728d	-0.7204979
5	0xbfbb6b55	-1.464213
6	0x3e65f2dc	0.22455925
7	0x3fc52d9f	1.5404547

l3.weight f4 [26, 8]
0	0xbf9be7b5	-1.2180086
1	0x3de8c7c6	0.11366229
2	0x3b1c4721	0.0023846107
3	0x3e95efe5	0.29284588
4	0xbf9e3985	-1.2361304
5	0xc0608367	-3.5080202
6	0x3f8e3073	1.1108536
7	0xbef15d48	-0.4714148
8	0x3e927942	0.28608137
9	0xbfc2a381	-1.5206147
10	0xc04a9086	-3.165071
11	0x3ea63f01	0.32469943
12	0xbffad8af	-1.9597377
13	0xc0a91f4a	-5.2850695
14	0x3f8f0aca	1.1175168
15	0x3f51863e	0.8184546
16	0xbc8ab9c4	-0.016934283
17	0xc0614043	-3.5195472
18	0xbee0a7ce	-0.43878025
19	0x3e964c23	0.29354963
20	0xc012cf5b	-2.293906
21	0xbfe1579c	-1.7604861
22	0x3d42867f	0.047491547
23	0x3f6bd42d	0.9212063
24	0x3f2544fe	0.645584
25	0xbf0d10d9	-0.5510383
26	0xbfca1b71	-1.5789624
27	0x3d8a5985	0.06755356
28	0xc0285d93	-2.6307113
29	0x3f03d33e	0.51494205
30	0xbfb67012	-1.4252951
31	0xbeaa13d9	-0.33218268
32	0x3f04932b	0.5178706
33	0x3e096210	0.13416314
34	0x3c390f24	0.011295114
35	0xbe955233	-0.29164276
36	0xbfd4c1c2	-1.662163
37	0xbf878aeb	-1.0589269
38	0xc0433148	-3.049883
39	0x3f65529e	0.8957919
40	0x3ee0a05b	0.43872342
41	0x3f02a013	0.51025504
42	0xc0015ce4	-2.0212946
43	0xbe280c03	-0.16410832
44	0xbf21a134	-0.631366
45	0xc0866e34	-4.2009525
46	0xbeb77d07	-0.35837576
47	0x3d22ea9a	0.039774515
48	0x3f4918c7	0.7855343
49	0x3e677120	0.22601748
50	0xc004a2d2	-2.0724378
51	0x3ddce03c	0.10784957
52	0xbec7a434	-0.38992465
53	0xbea1b140	-0.31580544
54	0xc00a7c36	-2.1638312
55	0xc01c6621	-2.4437335
56	0xbe2464ff	-0.16054152
57	0x3ee72dbe	0.45152086
58	0xbf160cb1	-0.58613116
59	0x3e809bb0	0.2511878
60	0x3ed114ca	0.40836173
61	0xc05d0e03	-3.4539802
62	0x3e45b1d9	0.19306125
63	0xc037aa3b	-2.869765
64	0x3f228b0e	0.6349343
65	0x3f1536e3	0.58286875
66	0xc028d92a	-2.6382546
67	0x3d98cace	0.07460557
68	0x3ef3b9c1	0.47602656
69	0xc0aa8811	-5.3291097
70	0xc0716d4d	-3.7722962
71	0x3ebe6d98	0.37192988
72	0x3d6322c8	0.05545309
73	0xbf327520	-0.6970997
74	0x3e599d06	0.21251306
75	0x3e460e5a	0.19341412
76	0xbe7ed829	-0.24887146
77	0x3e73737b	0.23774521
78	0xc0355288	-2.8331623
79	0xbfb1a8bb	-1.3879617
80	0xbf4e7415	-0.8064588
81	0x3edc6926	0.43048972
82	0xbdee1ca4	-0.116265565
83	0xbe29a036	-0.16565022
84	0x3f1cd2db	0.6125924
85	0xc075bfd2	-3.8398328
86	0xc02d2512	-2.7053876
87	0x3e8ad2f5	0.27114072
88	0xbef19b5d	-0.47188845
89	0xbed4cc51	-0.4156213
90	0xbf4f80a3	-0.8105566
91	0x3eb4ddbd	0.35325423
92	0xbfca4e9a	-1.5805237
93	0xbef43147	-0.47693846
94	0x3efb05fd	0.49028006
95	0x3dec0a8c	0.11525449
96	0xbe8a0f01	-0.26964572
97	0xbfe95e45	-1.8231894
98	0xbc761df9	-0.0150217945
99	0xbcb23c8a	-0.021757383
100	0xbf25c63c	-0.64755607
101	0x3d2edab4	0.04268904
102	0xbeb4e065	-0.3532745
103	0xbcadc82a	-0.02121361
104	0x3ed2af06	0.41149157
105	0xbe005ad5	-0.1253465
106	0xbf63179b	-0.88707894
107	0x3e9686c9	0.29399708
108	0xbf4826c8	-0.78184175
109	0xbec222aa	-0.37917072
110	0xbf1bee08	-0.6091008
111	0x3da345b8	0.07972282
112	0xc035696f	-2.8345602
113	0xbef6b787	-0.48186895
114	0x3e97bbc9	0.29635456
115	0xbdb779a2	-0.089587465
116	0x3f126003	0.5717775
117	0xbfebb2fa	-1.8413994
118	0xbf76844b	-0.96295613
119	0xbd2d8b52	-0.042369194
120	0xbfef3109	-1.8686839
121	0xc01d2fe3	-2.4560478
122	0x3e48e1ba	0.19617358
123	0xbde2ec39	-0.11080212
124	0xbe9eaaad	-0.3098959
125	0xc02138e1	-2.5190966
126	0xbef4675a	-0.477351
127	0x3f98cf40	1.1938248
128	0x3f0183db	0.5059182
129	0x3ebdacc5	0.37045875
130	0xbfd519c1	-1.6648484
131	0xbea4b7a1	-0.32171348
132	0xbff55d6f	-1.9169139
133	0xbfb6ee9f	-1.4291571
134	0x3f534682	0.8252946
135	0xbfcac2e9	-1.5840732
136	0x3dc1da44	0.09465459
137	0x3e8fd265	0.28090206
138	0xc024e380	-2.5763855
139	0x3e3fec16	0.18742403
140	0x3e99596d	0.2995104
141	0xbf8241d4	-1.0176339
142	0x3e9e4fa9	0.3092015
143	0xbffa9700	-1.9577332
144	0xbf2428bb	-0.6412465
145	0xbe424007	-0.18969737
146	0xbf0916cf	-0.5355043
147	0x3e8643ed	0.26223698
148	0x3e9bfe52	0.30467469
149	0xbf898438	-1.0743475
150	0x3e85fb60	0.26168346
151	0xbf64c0cd	-0.8935669
152	0x3ef38edf	0.4756994
153	0x3e9dc7a6	0.30816382
154	0xbf0f24a6	-0.55915296
155	0x3eb16d90	0.34653902
156	0x3f16c74c	0.5889785
157	0xbfe5f1b4	-1.7964387
158	0xbfc222db	-1.5166887
159	0xbf59dfe0	-0.8510723
160	0xbfac87a5	-1.3478895
161	0xc00ecd05	-2.2312634
162	0x3ebc90bc	0.36829174
163	0xbe80efbe	-0.2518291
164	0x3eccb30f	0.3998036
165	0xbe2fb7ce	-0.1715996
166	0xbfd78cf8	-1.6839895
167	0x3e5000d3	0.20312814
168	0xbed179a1	-0.40913108
169	0xbf4ef552	-0.8084308
170	0xbed8b98a	-0.42329055
171	0xbd180e5c	-0.03712307
172	0x3efb171d	0.49041072
173	0xbf978c9f	-1.1839789
174	0xbfa19b7e	-1.2625577
175	0x3f1858d9	0.5951057
176	0xc011101f	-2.266609
177	0xc02054b9	-2.505171
178	0x3a896599	0.0010482549
179	0xbdb3393e	-0.087511525
180	0xc00b69f3	-2.1783416
181	0x3e8cc1bc	0.27491558
182	0x3ebdce6f	0.3707156
183	0xbf06c1ee	-0.52639663
184	0xbf8eab19	-1.1145965
185	0x3e9c25f9	0.3049772
186	0x3e9502b6	0.2910363
187	0xbe7c4423	-0.24635367
188	0x3f057db1	0.52144915
189	0xbfa53ea4	-1.2909741
190	0xbfcb865c	-1.5900378
191	0xc008b74e	-2.136188
192	0xc05c00f5	-3.4375584
193	0xc030f9eb	-2.7652538
194	0x3f293601	0.6609803
195	0x3a9a2a75	0.0011761921
196	0x3e8cad73	0.2747608
197	0x3e51cc5e	0.20488116
198	0xbf31344d	-0.6922043
199	0xbfba9608	-1.4577036
200	0xbfac7196	-1.3472164
201	0xbf9ea5ff	-1.2394408
202	0xbe4374b6	-0.1908749
203	0xbeab0368	-0.33401036
204	0xbd5f0e52	-0.054457016
205	0x3df121f7	0.117740564
206	0x3f1e4ff1	0.6184073
207	0xbfe3b9d6	-1.7791088

l3.bias f4 [26]
0	0x3f1ae1bd	0.605007
1	0x3eb05594	0.3444029
2	0xbd823949	-0.063585825
3	0x3dfd9bbe	0.12383221
4	0x3fa73062	1.306164
5	0xbda1cf5b	-0.07900878
6	0x3e6ace05	0.22930153
7	0x3f2dd0e9	0.67896897
8	0x3ee01829	0.43768433
9	0xbed45868	-0.414737
10	0x3f22583c	0.63415885
11	0xbf7d50b7	-0.98951286
12	0xbf5b33de	-0.8562602
13	0xbf176b17	-0.5914778
14	0xbcec0eab	-0.028815588
15	0x3e2b8093	0.16748266
16	0xbdd76ea9	-0.105191536
17	0xbe37bc01	-0.17942812
18	0xbef3e619	-0.47636488
19	0xbe17410c	-0.14770907
20	0xbe318537	-0.17335974
21	0xbd08a932	-0.033364482
22	0x3e9fb6f9	0.31194285
23	0xbeff3456	-0.49844617
24	0x3e65af9d	0.22430272
25	0xbf1ff523	-0.62483424
