data.pth (torch, 5311 bytes, 6 tensors)

l1.weight f4 [8, 57]
-0.06794734 0.080848224 0.14411458 0.7302987 -0.0373901 0.1499135 -0.48765475 0.39584005
0.47767252 0.58909 0.14907251 0.48185644 0.7945792 -0.10621084 0.7481961 0.020358264
0.39463934 0.08138908 -0.4876959 0.12697457 0.054645702 0.046432395 -0.058376756 -0.1169423
-0.47386032 -0.063992195 -0.11983659 -0.07214235 0.36559424 0.48083887 -0.52036685 0.06733496
1.0105059 0.92551786 0.52001995 0.14989473 0.6687461 0.46115878 0.67620695 -0.8679853
0.5109929 0.13043126 -0.4687542 0.6823832 0.23183368 -0.28080598 0.05423298 -0.10534902
0.07686978 -0.15758604 -0.13438952 0.20268646 -0.45924494 0.033827532 -0.07295626 0.5015302
-0.3664718 -0.39234364 -0.052117296 0.4926039 0.4929685 0.4974211 0.84834224 -0.7333179
0.28479865 0.43837658 0.4873968 -0.7333687 0.49074325 -0.29753536 0.51134926 0.76643574
-0.32737777 0.6364072 0.5094027 -0.73336715 0.7903048 0.8796527 -0.23492028 0.8751479
0.85154605 -0.041171122 0.51190597 -0.40286618 0.52406436 0.8086467 0.6158169 -0.6411714
-0.440352 -0.49664184 0.6012325 0.7129874 0.26700482 -0.23679793 0.56721896 0.5809257
0.13318355 -0.3245188 0.3623131 -0.7210928 0.5274424 0.84825677 -0.5306819 -0.23387758
0.78502417 -0.46760464 -0.6060566 -0.7332433 0.66302323 0.2061511 0.5326368 -0.45027184
0.6535661 0.15311004 0.644742 -0.40777823 1.1856574 -0.05305656 0.63772553 0.29706255
0.054855313 0.4596681 -0.0051643364 -0.20704812 1.2237016 -0.00821007 0.10980097 0.71020603
-0.64638585 0.6378814 0.431469 0.49190655 -0.02487022 -0.24581197 0.88220215 -0.40581074
0.75467485 0.76882637 0.38702375 0.910676 0.6616548 0.48077884 0.9511046 -0.21462785
0.21360005 0.60891193 0.11266756 -0.14637978 0.544447 -0.13202603 0.102934614 -0.3880547
-0.27082244 -0.12866144 0.031659864 -0.33961895 0.11245357 0.08477573 0.82203543 -1.3198152
-0.410732 0.3860414 0.6370494 0.6844696 -0.61371785 -0.30595165 0.2991987 -0.26772198
0.7242763 -0.027940009 -0.052696276 -0.119493574 0.012099032 0.33586752 0.31965736 -0.27925634
-0.04165822 -0.53321975 0.5579901 0.37903956 0.9378465 -0.21032919 0.43597022 0.73414445
-0.27211377 0.022891222 0.024663815 0.5231059 -0.2643251 -0.53467655 -0.08581373 -0.53651446
-0.08890913 -0.53642917 -0.5368282 -0.18378022 -0.5719394 -0.17510366 -0.16420293 0.28531322
0.07912479 -0.3289793 -0.15699926 1.0307497 0.09434202 0.6732913 -0.052812852 0.7084998
0.08196883 0.8516384 0.14674585 0.45753855 -0.15508217 -0.2846587 0.46460226 0.47876063
0.06684037 -0.17393407 -0.0695328 0.011509565 -0.2459807 1.7930831 -0.014390807 -0.15249562
-0.18384264 -0.13481021 0.0771569 0.3909311 -0.13092753 -0.013309672 0.17566432 0.82832325
0.42130792 0.7282319 -0.81782967 0.2882755 0.5234782 0.82330257 -0.007525772 0.5655136
0.6784374 0.546101 0.4464325 -0.20470192 0.18174651 0.46881688 -0.81934 -0.05655952
0.64300317 -0.008371412 0.66882193 0.65432245 0.22026524 0.70158523 -0.08814982 0.36655864
00000000: fa27 8bbd c193 a53d c692 133e dbf4 3a3f
00000010: 5d26 19bd ed82 193e e2ad f9be 8cab ca3e
00000020: 7e91 f43e 9ace 163f 77a6 183e e3b5 f63e
00000030: 8b69 4b3f 1285 d9bd c889 3f3f 60c6 a63c
00000040: 2b0e ca3e 51af a63d 47b3 f9be 9f05 023e
00000050: 2cd4 5f3d e52f 3e3d 771c 6fbd 727f efbd
00000060: d29d f2be 570e 83bd e36c f5bd 5ebf 93bd
00000070: 2b2f bb3e 8330 f63e c336 05bf e9e6 893d
00000080: 4258 813f bdee 6c3f 0720 053f 017e 193e
00000090: f232 2b3f 011d ec3e e61b 2d3f 4934 5ebf
000000a0: 6ed0 023f c68f 053e 8d00 f0be aab0 2e3f
000000b0: cf65 6d3e cdc5 8fbe 6723 5e3d 3ac1 d7bd
000000c0: e76d 9d3d 3c5e 21be 689d 09be 0a8d 4f3e
000000d0: 2722 ebbe bd8e 0a3d 176a 95bd 4864 003f
000000e0: 31a2 bbbe 44e1 c8be f278 55bd 9436 fc3e
000000f0: 5e66 fc3e faad fe3e f52c 593f b9ba 3bbf
00000100: 21d1 913e e572 e03e 138c f93e 0dbe 3bbf
00000110: b342 fb3e 8e56 98be c9e7 023f 2235 443f
00000120: 0f9e a7be 95eb 223f 3768 023f f3bd 3bbf
00000130: 6a51 4a3f eb30 613f f18e 70be b109 603f
00000140: ecfe 593f 0da3 28bd 450c 033f 7a44 cebe
00000150: 1529 063f 7803 4f3f 2da6 1d3f cf23 24bf
00000160: d175 e1be d747 febe 60ea 193f 5886 363f
00000170: dbb4 883e 287b 72be 4335 113f 8cb7 143f
00000180: 4561 083e 5427 a6be 1a81 b93e 8a99 38bf
00000190: 7706 073f 5b27 593f c5da 07bf 9b7d 6fbe
000001a0: 58f7 483f e069 efbe 8626 1bbf d5b5 3bbf
000001b0: e4bb 293f 4619 533e e35a 083f 088a e6be
000001c0: 1c50 273f e1c8 1c3e d00d 253f 4fc8 d0be
000001d0: 9fc3 973f d651 59bd fb41 233f 9518 983e
000001e0: f7af 603d 9e59 eb3e 9839 a9bb 6c04 54be
000001f0: 41a2 9c3f 8883 06bc 55df e03d 10d0 353f
00000200: 8b79 25bf 324c 233f 81e9 dc3e 2ddb fb3e
00000210: a2bc cbbc 22b6 7bbe 00d8 613f 6dc6 cfbe
00000220: 5f32 413f ced1 443f fa27 c63e 1022 693f
00000230: 3562 293f a528 f63e 977b 733f 67c7 5bbe
00000240: f9b9 5a3e a7e1 1b3f 40be e63d 95e4 15be
00000250: e160 0b3f d531 07be 62cf d23d 1baf c6be
00000260: 3da9 8abe d3bf 03be c6ad 013d 89e2 adbe
00000270: 0f4e e63d e69e ad3d ea70 523f b4ef a8bf
00000280: 774b d2be 38a7 c53e ab15 233f 6639 2f3f
00000290: 9d1c 1dbf b2a5 9cbe 9230 993e db12 89be
000002a0: 2c6a 393f 72e2 e4bc 0dd8 57bd 0cb9 f4bd
000002b0: 053b 463c d4f6 ab3e 21aa a33e b0fa 8ebe
000002c0: cfa1 2abd 1781 08bf 70d8 0e3f 7911 c23e
000002d0: b516 703f 8960 57be 7d37 df3e e4f0 3b3f
000002e0: 7f52 8bbe 5f86 bb3c c50b ca3c 45ea 053f
000002f0: 9f55 87be 90e0 08bf 1cbf afbd 0359 09bf
00000300: fd15 b6bd 6c53 09bf 936d 09bf e230 3cbe
00000310: 9f6a 12bf 604e 33be d024 28be 9314 923e
00000320: 2e0c a23d fa6f a8be 6ac4 20be 9bef 833f
00000330: 6436 c13d d25c 2c3f 4a52 58bd 3e60 353f
00000340: 46df a73d f904 5a3f 8b44 163e 7e42 ea3e
00000350: dccd 1ebe c9be 91be 59e0 ed3e 1d20 f53e
00000360: 9be3 883d c61b 32be 3667 8ebd 9d92 3c3c
00000370: 5de2 7bbe bf83 e53f 6bc7 6bbc d027 1cbe
00000380: 3f41 3cbe b00b 0abe 7004 9e3d 1f28 c83e
00000390: de11 06be cf10 5abc 59e1 333e fe0c 543f
000003a0: acb5 d73e 686d 3a3f 495d 51bf d998 933e
000003b0: ab02 063f f5c3 523f c09a f6bb 80c5 103f
000003c0: 13ae 2d3f 46cd 0b3f cd92 e43e 619d 51be
000003d0: c21b 3a3e c408 f03e 44c0 51bf f5aa 67bd
000003e0: db9b 243f 3f28 09bc ea37 2b3f ad81 273f
000003f0: 368d 613e 179b 333f e587 b4bd 93ad bb3e

l1.bias f4 [8]
0.48769724 0.7333546 1.3198544 0.5364102 0.8189603 1.3727993 0.9348699 0.78849536
00000000: 74b3 f93e 21bd 3b3f fdf0 a83f 2e52 093f
00000010: 62a7 513f e3b7 af3f a253 6f3f d5da 493f

l2.weight f4 [8, 8]
0.928147 0.16490266 0.27720776 1.1485863 0.61458915 -0.29225844 0.57318276 -1.1686145
0.7436598 0.29238728 1.33456 1.0114998 1.1644742 0.14617284 -0.35403785 -1.059938
-0.104341276 0.19622517 -0.21266426 0.1547795 0.067347944 -0.20037484 -0.094553374 -0.24286598
0.15720594 1.789192 0.7095042 -0.63842195 0.93446314 0.269625 -0.17607702 1.6340643
0.41638213 -1.3017564 0.9252718 0.43994692 -0.1349065 0.2542481 0.45950478 -0.46856353
-1.0047598 -0.26505777 1.3099753 -1.5879933 0.17812054 1.6810925 0.3823789 -0.07984348
1.0022148 0.55586904 -1.0300075 -0.05864441 1.0684752 1.4390332 -0.15091497 -0.23707536
-0.87514687 -0.64956015 -0.85341877 1.3518628 0.0051744306 0.675963 2.2554264 0.63000387
00000000: 0b9b 6d3f 3edc 283e 2dee 8d3e e004 933f
00000010: b755 1d3f e6a2 95be 1bbc 123f 2995 95bf
00000020: 7d60 3e3f c9b3 953e ddd2 aa3f d378 813f
00000030: 7e0d 953f 55ae 153e 7344 b5be 0cac 87bf
00000040: e1b0 d5bd 40ef 483e a9c4 59be 847e 1e3e
00000050: b8ed 893d 102f 4dbe 33a5 c1bd dcb1 78be
00000060: 98fa 203e 3e04 e53f 11a2 353f 9f6f 23bf
00000070: fa38 6f3f 4a0c 8a3e 894d 34be 0529 d13f
00000080: 0a30 d53e f49f a6bf 9dde 6c3f b940 e13e
00000090: ee24 0abe cf2c 823e 3644 eb3e 8fe7 efbe
000000a0: f89b 80bf a7b5 87be 45ad a73f 5d43 cbbf
000000b0: 3b65 363e 0a2e d73f 2bc7 c33e fa84 a3bd
000000c0: 9348 803f 6f4d 0e3f 49d7 83bf 1f35 70bd
000000d0: ccc3 883f 3d32 b83f 7489 1abe e2c3 72be
000000e0: a009 60bf 9349 26bf a779 5abf d709 ad3f
000000f0: 458e a93b e90b 2d3f e858 1040 ef47 213f

l2.bias f4 [8]
-0.004495364 0.040318888 -0.37741315 0.11890262 0.468323 1.0253224 -0.038131174 0.5198394
00000000: d94d 93bb 6b25 253d 4c3c c1be 3883 f33d
00000010: 08c8 ef3e c43d 833f 6f2f 1cbd 3214 053f

l3.weight f4 [11, 8]
-1.410502 0.18095477 -0.2959087 0.54300594 -1.639054 0.5007652 -0.09766221 -2.2590554
-2.426317 -1.7564278 -0.12603033 -0.80604917 1.0153029 0.7376554 -2.383642 0.18014319
-0.8235957 -0.858593 0.26957592 -1.3157146 -1.2114985 0.21387292 1.1558629 -0.049308095
-1.626292 -0.9528319 0.16402884 0.56521755 -2.987257 -0.0663219 -1.2822571 -0.17582795
-1.0120609 -1.3306949 0.06711768 0.9528104 -0.9970948 -1.7907633 0.51203895 -1.3698745
0.06328366 0.10848047 -0.18209204 -0.16667198 -1.7935637 -0.82393974 0.8683964 -1.4172142
-0.4402964 -0.44183728 -0.18123236 -0.55205387 -2.0812497 -1.1749885 -1.7129208 0.7684672
-0.33177435 0.32592353 0.026572391 -0.75970674 1.1524194 0.6467612 -1.1501758 -1.6363634
0.5823203 0.15766814 0.24268086 -1.91724 0.6978796 -1.1515216 -3.698442 0.23155287
0.4161511 0.6081547 -0.03468377 0.21539406 -0.91126895 -1.3514068 -0.87230706 -2.0737262
0.5822139 0.57871515 -0.27359292 -0.97993016 0.78952813 -1.4979328 -0.046071865 -1.3609055
00000000: 548b b4bf 354c 393e 5881 97be 7002 0b3f
00000010: 85cc d1bf 2632 003f 2003 c8bd 5d94 10c0
00000020: c748 1bc0 a0d2 e0bf 180e 01be 3d59 4ebf
00000030: 72f5 813f fcd6 3c3f 978d 18c0 7577 383e
00000040: 2bd7 52bf c0cc 5bbf db05 8a3e 5669 a8bf
00000050: 6212 9bbf 8101 5b3e 51f3 933f 49f7 49bd
00000060: 562a d0bf cbec 73bf 2df7 273e 19b2 103f
00000070: 382f 3fc0 c7d3 87bd 0021 a4bf 3e0c 34be
00000080: 368b 81bf 3654 aabf ff74 893d 62eb 733f
00000090: 9b41 7fbf bb37 e5bf fc14 033f 0c58 afbf
000000a0: dd9a 813d 022b de3d 5676 3abe 0fac 2abe
000000b0: 7f93 e5bf b7ed 52bf 3a4f 5e3f 4667 b5bf
000000c0: 886e e1be 7f38 e2be fa94 39be 6753 0dbf
000000d0: 3233 05c0 0666 96bf fd40 dbbf 44ba 443f
000000e0: 54de a9be 73df a63e 58ae d93c 247c 42bf
000000f0: 7b82 933f 2492 253f f638 93bf 5b74 d1bf
00000100: f112 153f c273 213e 5581 783e 1f68 f5bf
00000110: 3da8 323f 0f65 93bf 46b3 6cc0 321c 6d3e
00000120: c211 d53e 07b0 1b3f 9210 0ebd 4390 5c3e
00000130: ec48 69bf e6fa acbf 844f 5fbf eeb7 04c0
00000140: f80b 153f ad26 143f 5f14 8cbe b4dc 7abf
00000150: 841e 4a3f 43bc bfbf dab5 3cbd 2732 aebf

l3.bias f4 [11]
-0.013974909 0.45063055 0.118250124 -0.032428708 0.41535398 -0.23312666 0.5806594 -0.15086386
0.0065748687 -0.57274324 -0.05770232
00000000: 04f7 64bc 0cb9 e63e 1f2d f23d f7d3 04bd
00000010: 47a9 d43e c1b8 6ebe 18a6 143f 0e7c 1abe
00000020: ff71 d73b 4d9f 12bf 4559 6cbd
