data.pth (torch, 15999 bytes, 6 tensors)

l1.weight f4 [8, 270]
00000000: dd6c 093f b4bf 64bf 9fa5 693e c83e 1e3e
00000010: a70c 253f 64a0 71bf 600c ccbe 625e 7d3f
00000020: ed0c 643f 9006 57bd 3974 d43d e921 943e
00000030: d641 87be 561d 91bf a4ed 483f d343 0c3f
00000040: 3705 5fbf a977 26be daae 103f f135 af3c
00000050: 5f7a 60be 0700 703f 98a2 2f3f 861a 81be
00000060: 3f54 193f edc2 40be 05e4 dcbe dd15 15bb
00000070: 403a 6bbe 673c 97bd dd4f 493f 81c3 4d3e
00000080: 40b2 bebe 3348 bdbd 1feb 82bf df9d 72be
00000090: 4c66 ba3d 14e5 78bf 6e8e 503e 919f 453f
000000a0: b346 25bf 0938 51be 4e9d 20bf 271c 923f
000000b0: bc2b 62bf 0c77 3fbe f234 b2be e603 24bf
000000c0: 2a02 18be 9764 733e 033e 263f c29b 093f
000000d0: 69f3 a33e df7b 3e3d 838f 533e c977 163f
000000e0: 3f76 0a3e 937b 2d3f 5d7c babe 17c8 ecbe
000000f0: 35a5 4fbd 8252 c63f f775 233f 6481 343e
00000100: 3cb3 893e 3c5a 01be e5c1 e73e 6de4 953f
00000110: ec4a 2bbf f85d 923f 5468 18be 0f4f 5d3f
00000120: 2275 2f3f 62cb 91bd f850 d13d 3562 b1be
00000130: 792b c33e f57c 44be 1123 e23e 1396 323f
00000140: c448 3cbf 70c2 0f3f 51ab 053f 4052 2fbf
00000150: 4600 fb3e 17ee 1dbe 51ed f2be 4dc1 8d3c
00000160: 2e5c 383e 74c2 bbbd 712b 173f 505e 37bf
00000170: 7adb 8d3e 1a56 773d 6027 4fbe 8a5c 80bf
00000180: c801 503f 0027 16bf 0962 173f 263e 863e
00000190: 8ebb cf3f d2e3 d63e bd78 a8be 08e2 1ebf
000001a0: 830b 6e3f 5391 d2be f0bc 26be c209 a33e
000001b0: f510 24bf 3e73 f9be df82 af3e 43eb 5e3e
000001c0: 2e90 0bbf f22c 21be a24d f03e e8a0 5a3f
000001d0: 2934 5c3e 3cf1 ff3e de1c 0ebe 157b 1b3e
000001e0: 4c20 c8be f4ac 79bf fecf bd3e 3565 0cbf
000001f0: cf98 2c3f dcaa 293e 82db 0dbf 2d78 f9bd
00000200: 7cc2 073f a7e3 133f 9b15 d7be 3e6c 54bf
00000210: bb08 63bd c6c0 803f cc78 b23f 778b 6e3f
00000220: 96b2 673d 2d92 643f 5104 d2be 8262 673f
00000230: 1f30 85be cd0a 44be 4924 8fbe 277c eebe
00000240: d184 13bf 94bc 973f 0267 4ebe a50f 193e
00000250: 2b06 853d e5ec 773e 10fe 00bf eb6f 053f
00000260: 13a3 12bf fe76 22bf dc24 32bd ad74 6cbf
00000270: b7fe 35be 4cbe 11bf 47ef 4bbf 697a 563f
00000280: cfa8 30bf 6f09 ebbc 3cc9 003f 6728 adbe
00000290: ada3 0b3f 7bc4 86be d425 82be 2f27 d0be
000002a0: 9e8b c1be 63cb 45bf a085 00bf cbb9 613f
000002b0: 31d6 c73e 8847 1b3f 3993 31be 9b36 1a3f
000002c0: 92f6 b43e cbda 1f3f 4329 41be 5c49 603e
000002d0: 9323 31bf d2d1 a73e 98e8 b1be e112 7e3e
000002e0: 4ce2 3c3f 0d5f 36be 97e7 34bf e95d cbbf
000002f0: cdb2 343d 2ddb 0c3e 8931 e13d 20b9 643f
00000300: 76be 96bd 2d13 9e3d 53a3 ef3e 0089 8b3e
00000310: 36b9 0ebf 8ae1 863f a957 323e 730b c53e
00000320: fa34 1e3e b576 afbe 9af4 5dbe fecc 703f
00000330: 356d 923e 31ac 5b3d 3f5d 59bd a9fa 72be
00000340: f1aa f73d 92d9 563f a6a9 0abf fc7a 3b3f
00000350: 233d 9c3e 2db2 30bf 98a4 6ebd 3c74 adbd
00000360: df74 b5be d924 2abf 06d8 13bf 4b9a 733f
00000370: e8f4 e1bd b94c 51be dadc f2be b57f 7bbe
00000380: 0e7c d73e 7288 33bf 2641 52be 7392 ba3e
00000390: 1728 4d3f 5d7c 25bf 6011 a73f a28b 86bf
000003a0: b646 80be baa0 a33d c5f3 ff3e d271 473e
000003b0: 3b9e b7be d214 ac3e f939 803f 8e3f 2b3f
000003c0: 8660 9c3f 1487 253c f3c4 7f3d 6d47 49be
000003d0: e20f f83e c582 4c3f 3f32 9cbe 7baf 693e
000003e0: fee1 373f 1594 393f 1dd2 573f 04c3 31be
000003f0: 38e4 173e f5d3 0e3d ac67 9fbe c387 f1bd
0.5368174 -0.89355016 0.22817086 0.15453637 0.6447243 -0.9438536 -0.3985319 0.9897214
0.89082223 -0.052496493 0.1037373 0.2893212 -0.26417416 -1.1337078 0.7848761 0.5479099
-0.8711733 -0.16256584 0.565168 0.021388026 -0.21921681 0.9375004 0.68607473 -0.25215548
0.59894174 -0.18824358 -0.43142715 -0.0022748627 -0.2297144 -0.07384568 0.78637487 0.2009411
-0.3724537 -0.092422865 -1.0228003 -0.23693036 0.09101543 -0.97224545 0.20366833 0.77196604
-0.64561003 -0.20431532 -0.6274003 1.1414841 -0.88347983 -0.18697757 -0.3480602 -0.6406845
-0.14844576 0.2376884 0.6493837 0.5375329 0.32021645 0.04650485 0.20660214 0.5877653
0.1352167 0.67766684 -0.36423007 -0.46246406 -0.050694663 1.5493929 0.63851875 0.17627484
0.26894557 -0.12632078 0.45265117 1.1710335 -0.66911197 1.1434927 -0.14883548 0.8644876
0.68538105 -0.0711887 0.10220522 -0.3464524 0.38119105 -0.19188292 0.4416738 0.69760245
-0.7354853 0.56156063 0.52214533 -0.6848488 0.49023646 -0.15422855 -0.47446683 0.017304087
0.18003914 -0.09167948 0.5905066 -0.71628284 0.2770651 0.060384847 -0.20229864 -1.0028241
0.8125272 -0.5865326 0.59133965 0.2621929 1.6229112 0.41970688 -0.32904616 -0.62063646
0.92986315 -0.411265 -0.16283011 0.31843382 -0.64088374 -0.48720735 0.34279534 0.21769433
-0.54516876 -0.15739802 0.4693423 0.85401773 0.21504273 0.49988735 -0.138782 0.15183671
-0.3908714 -0.9752953 0.37072748 -0.5484193 0.6742067 0.16569084 -0.5541307 -0.12181125
0.53031135 0.57769245 -0.4200867 -0.82977664 -0.055428248 1.005883 1.3943114 0.93181556
0.056566797 0.89285547 -0.41018918 0.90384686 -0.26013276 -0.19144745 -0.2795737 -0.46579096
-0.57624537 1.1854424 -0.20156482 0.14947374 0.06495317 0.24211462 -0.5038767 0.521239
-0.5728008 -0.6346282 -0.043492183 -0.92365533 -0.17772947 -0.56930995 -0.79661983 0.83780533
-0.6900758 -0.028691022 0.5030706 -0.33819887 0.54546624 -0.26321778 -0.25419486 -0.40654895
-0.37801832 -0.7726347 -0.50203896 0.8817412 0.39030603 0.60656023 -0.17341317 0.6023957
0.35344368 0.62443227 -0.18863396 0.21902984 -0.69194907 0.32777268 -0.34747767 0.24811889
0.737828 -0.17809696 -0.7066588 -1.5888034 0.04411583 0.13755484 0.10995776 0.8934498
-0.07360546 0.07718501 0.46804294 0.2725296 -0.5575136 1.0537579 0.17416252 0.38485298
0.15449896 -0.34270254 -0.2167534 0.94062793 0.28598943 0.05363101 -0.053067442 -0.23728432
0.12093151 0.83925736 -0.5416511 0.73234534 0.30515394 -0.69021875 -0.058262438 -0.084694356
-0.35440728 -0.66462475 -0.577515 0.9515731 -0.1103304 -0.20439424 -0.4743412 -0.24560435
0.42086834 -0.70130074 -0.20532665 0.36439857 0.801393 -0.6464289 1.3052177 -1.0511363
-0.25053948 0.079896405 0.4999067 0.19477013 -0.35862908 0.33609635 1.0017692 0.6689385
1.2216957 0.010103006 0.062443685 -0.19656153 0.48449618 0.7988704 -0.30507085 0.22820847
0.7182921 0.7249158 0.8430498 -0.17359549 0.14833152 0.034870107 -0.31133783 -0.117934726

l1.bias f4 [8]
00000000: 6afe 3f3f 70db 3d3f 29a8 9c3f 342d 9c3f
00000010: 03e8 a13f 19c2 843f cf6f 523f e3db 4b3f
0.7499758 0.7416296 1.2238818 1.2201295 1.2648929 1.0371734 0.82201856 0.79632396

l2.weight f4 [8, 8]
00000000: a17a 74bd 96b7 d8be 8067 b3be a60b d5be
00000010: 7621 48be 7a99 80be fa9f a0be 9f6d ebbe
00000020: e3be d93f 346c a83f 6115 2140 8588 b73f
00000030: f7af aebf 97ad 1d3e 874c 373f ad7a c33d
00000040: 58e3 d13f 99b1 c3bf d409 953f 60a1 b6be
00000050: 1498 e73f 501f 473e 8bf3 af3f 660a 063f
00000060: 1123 12bf 9a9f 823f e2bd 11be 00d8 1040
00000070: 8d9c 9f3f 9f43 3cbf ee0a f43f 3c5a 0340
00000080: ca9f e23f 906b 803f f15c 1abf ba08 18c0
00000090: 98a9 b83c 4e71 503f ae7a c03f e714 883e
000000a0: 1945 a73e 6227 243f 727c babf ab7d 89bf
000000b0: 3a23 0040 b93c febc 2b0a eebe 8aae 1d40
000000c0: d664 4c3e 017d 823f 829a 953e c1de efbe
000000d0: 388f 573e 89a1 2a40 f670 c0bf 33e6 3b3f
000000e0: 28ec 9dbf dafa 1a3f 0878 4d3f b276 8abd
000000f0: f61a d53f db6e c03f ff59 d73f bd04 e8bf
-0.05968726 -0.42327565 -0.35039902 -0.4161045 -0.19544014 -0.25117093 -0.31372052 -0.45982072
1.7011379 1.3158021 2.5169299 1.4338537 -1.364745 0.1539825 0.71601146 0.09544883
1.6397505 -1.5288574 1.1643624 -0.35669994 1.8093286 0.19445539 1.3746198 0.52359617
-0.5708476 1.0204957 -0.14232591 2.2631836 1.246965 -0.7354068 1.9065835 2.0523825
1.7705014 1.0032825 -0.6029807 -2.3755326 0.022541806 0.8142289 1.5037439 0.26578447
0.32669905 0.64122593 -1.4569228 -1.0741476 2.00215 -0.031034814 -0.46492133 2.463778
0.19960341 1.0194398 0.29219443 -0.46849635 0.21050727 2.6661093 -1.5034473 0.7339813
-1.2337694 0.6053902 0.8026128 -0.067609206 1.6648853 1.503383 1.682434 -1.8126446

l2.bias f4 [8]
00000000: 8cd9 abbe 2a52 6e3d 645d 1d3f c3f0 93bd
00000010: ec58 1ebf bd50 eb3e b1d0 3d3f 8d3d 013f
-0.33564413 0.058183827 0.6147063 -0.07223656 -0.61854434 0.45960036 0.7414656 0.50484544

l3.weight f4 [26, 8]
00000000: 3b25 24be b84e 8cbe 20d9 5abe bcf1 4cbf
00000010: 7d9e 26c0 71ec 2dbf 54f5 2f3e a0f3 b43e
00000020: 48bf c0bd 56a9 0ebd 5e14 5fc0 9c8d c4bf
00000030: f4a5 4cc0 feda 03c0 0a93 b03f 347b 673f
00000040: 6f66 77be 00ef a9be 2e00 a7be 0528 933e
00000050: 373b 39c0 cf70 2bbc 8624 3cc0 44be 71bf
00000060: e81a 0e3e fba0 a0bf 46bf 90bf e2b9 f73d
00000070: 4fe3 14c0 2eac 473f 80f0 b23d 4d41 1ac0
00000080: d059 a0bd 2420 2fbe 9370 e03e 5832 0bbf
00000090: 404d 9ebf ae62 34be 3cb2 c2be db51 44c0
000000a0: f4ea b93d 9361 70bf 6192 253f 472d bcbf
000000b0: d839 28bf af4a 0abf 421e 0cc0 a16e 1bbe
000000c0: 857b 57bd e6d4 7c3e 0e07 5cc0 97eb 8a3e
000000d0: ef6c eebf 7d45 e83d 3066 073e 04c8 56c0
000000e0: e06e 173e 4669 13be 1d02 133e e5c3 3bc0
000000f0: 92b4 bbbc 6455 a3bf 9266 3abe d7be 55bf
00000100: 1675 5e3c b330 593f 2343 3bc0 9e59 80bc
00000110: f002 4cc0 655c 39c0 e676 373e b5ed a7bf
00000120: 5a0d 6f3e 624a 32c0 0908 75bd 04c7 12bf
00000130: 9876 1dc0 d11a b73e 4334 f43e 18e7 28be
00000140: 622f 553e 10d7 40c0 a0dc 053f 3b81 823c
00000150: 9a9c 63bf 2756 f83e 4015 9ebf 0b31 debf
00000160: e7a0 95bd 4864 8fbe d518 22c0 5f54 13c0
00000170: 6b24 433f 8445 1a3d bbfd 003f 84e0 2abf
00000180: a640 373e 6e74 143e 8666 d8bf 559d 65bf
00000190: 84d2 c4bd 6bbf 11c0 c15a d6be 6b89 1b3f
000001a0: 1560 d2bd 793d eb3e a8d6 29c0 c017 33c0
000001b0: b917 133d 3fea b6bf 2f17 113f 347d 563c
000001c0: b68c 5abe bcd2 32bf 9311 7dbf 97c2 c4bf
000001d0: a825 963e 8e16 cc3e 5352 1c3f ac0f 18c0
000001e0: ef94 70be 23cf 3f3f 46e6 2ec0 b22e 75bf
000001f0: 6fc4 53bd 27bc aebe fe91 b23e 01e9 0ec0
00000200: 5cc3 d33d 8892 3a3f 49e3 8bbf 4083 b93d
00000210: 8f08 f8bd e77b e1bf ac13 a9bf e4ac eebf
00000220: 206a debc 215e 6a3e a27a edbf 97a6 613e
00000230: bce7 9cbf 9395 05c0 3448 febf ede1 493e
00000240: bbc4 0a3e 6bab 0ebf e2fd 23c0 7500 3cbe
00000250: ecbf 30be e28e 3fbf d3a5 183e 5514 093e
00000260: 88ac 9d3d c4fe 003c 7ff7 79bf 5db3 38bf
00000270: 5130 043f a2b7 5bbe 73fe 2dbf 937f 41bf
00000280: 54fd 2cbe 3d5c bdbf 51f1 35bf 7ef9 923e
00000290: 07bb c2be 5991 93be 595d 9dbf bd07 bd3e
000002a0: cc58 9ebe 8a6a ddbf 24a6 eebf 7921 b1be
000002b0: 38c6 ccbe 9ca8 3e3f 3ba9 2d3e 37f2 f8be
000002c0: a2e4 9bbe a346 16c0 9b44 053f d71c 0abe
000002d0: e54a 36c0 567e b1be 213b 12c0 d8bb 193f
000002e0: 63b2 d6bd 7097 2bc0 8add 823e fda8 fbbf
000002f0: 73a4 6bbe b11f ccbe 111f 2dbd 09f2 193f
00000300: 67bf 35be 2fa1 1bbf 262a 923e d473 9c3c
00000310: 74ba 31c0 d576 16c0 20f9 33c0 b633 023f
00000320: c4cf 1abe 6614 4dbe 4be1 46c0 f0ac 5f3f
00000330: b966 b9bf 478f 1a3f d41f d9bf 8faa 7bbf
-0.16029827 -0.27403808 -0.21371889 -0.8005636 -2.6034234 -0.67938906 0.17183429 0.3534212
-0.09411484 -0.03482946 -3.485618 -1.5355716 -3.197629 -2.0602412 1.3794873 0.9042237
-0.24160169 -0.33190155 -0.32617325 0.2874147 -2.8942392 -0.010463907 -2.9397292 -0.9443095
0.13877451 -1.2549127 -1.1308372 0.12096001 -2.3263738 0.779971 0.08737278 -2.4102356
-0.078296304 -0.17102104 0.43835887 -0.54373693 -1.2367325 -0.17615768 -0.38026607 -3.067496
0.09078017 -0.93898886 0.6467648 -1.4701318 -0.6571326 -0.5402021 -2.1893468 -0.1517892
-0.05260803 0.2469059 -3.4379306 0.27132866 -1.8626994 0.11341379 0.13222575 -3.355958
0.14788389 -0.14395627 0.14356275 -2.9338315 -0.022913251 -1.2760434 -0.1820319 -0.83494323
0.01357772 0.84839934 -2.9259727 -0.015667733 -3.1876793 -2.8962643 0.1791645 -1.3119417
0.23344937 -2.78579 -0.059822116 -0.57334924 -2.4603634 0.35762647 0.47696123 -0.16494405
0.20818856 -3.0131264 0.5228977 0.015930763 -0.8891083 0.4850323 -1.2350235 -1.7358717
-0.0730608 -0.28006196 -2.5327656 -2.3020246 0.76227444 0.03766395 0.5038716 -0.66748834
0.17895755 0.1449754 -1.6906288 -0.89693195 -0.09610465 -2.2773082 -0.41866115 0.6075656
-0.102722324 0.45945337 -2.6537266 -2.7983246 0.035911296 -1.4290236 0.56676 0.013091374
-0.2134274 -0.69852805 -0.9885494 -1.5371884 0.29325604 0.39860958 0.61063117 -2.3759565
-0.23494314 0.7492544 -2.7328048 -0.95774376 -0.051701006 -0.34127924 0.34877008 -2.2329714
0.10339996 0.7287984 -1.0928737 0.09058237 -0.121110074 -1.7615937 -1.3209128 -1.8646512
-0.027150214 0.2288747 -1.855305 0.22036205 -1.225822 -2.0872543 -1.9865785 0.1971509
0.13551609 -0.55730313 -2.5623708 -0.1835955 -0.17260712 -0.74827397 0.14907007 0.13386662
0.07698923 0.007873241 -0.97643274 -0.72148687 0.51636225 -0.21456769 -0.67966384 -0.7558529
-0.16893512 -1.4793774 -0.71071345 0.28705972 -0.38033316 -0.2882183 -1.2294112 0.36919966
-0.30927122 -1.7298138 -1.8644452 -0.3459585 -0.3999498 0.7447603 0.16959088 -0.48622295
-0.3044787 -2.3480613 0.5205781 -0.13487564 -2.8483212 -0.346667 -2.284859 0.6005225
-0.10483243 -2.681118 0.25559646 -1.9660946 -0.23011951 -0.3986793 -0.042265955 0.6013494
-0.17748795 -0.6079282 0.28547782 0.0190982 -2.7770052 -2.351003 -2.8120804 0.50860155
-0.15118319 -0.20027313 -3.1075008 0.87373257 -1.4484473 0.60374874 -1.6962838 -0.98307127

l3.bias f4 [26]
00000000: f6da 073e 5a89 943e 43fd 893e ba15 fc3c
00000010: ae94 e93e db77 c2bd 6714 cd3e e44d d4bc
00000020: 77c8 fe3e a8ab 453d d223 173e 1199 6cbe
00000030: 283b 0cbf 4661 02bf 8d47 a5be 4996 8fbe
00000040: ca32 d73c 078a 05bc a6fc 31bf 8a01 25be
00000050: a090 70bf c175 a2bd 7ade 2b3d 1fdb 96bd
00000060: cc59 9abe 9754 22bf
0.1326712 0.2901104 0.26951036 0.030772079 0.45621246 -0.09495517 0.40054628 -0.025916047
0.49762318 0.048259407 0.14759758 -0.23105265 -0.54777765 -0.5092968 -0.3228115 -0.28044346
0.026269335 -0.008150584 -0.69526136 -0.16113868 -0.9397068 -0.07932616 0.041960217 -0.07366013
-0.30146635 -0.63410324
