data.pth (torch, 11050 bytes, 6 tensors)

l1.weight f4 [8, 113]
000000 a8 3d aa bd f8 f4 fd be cf 1f 03 be 1c 0d 81 be
       -0.08312541 -0.4960096 -0.12805103 -0.25205314
000010 b7 f2 51 3f 62 ae 63 3f bf 46 9f 3f eb d6 e3 be
       0.8201098 0.8893796 1.2443465 -0.44499907
000020 a4 9a b2 3d 75 a7 47 3f af 49 9a 3e 87 0e 18 3e
       0.087209016 0.77989894 0.3013434 0.14849292
000030 48 25 4b 3f e4 1d 87 bd ba bc 85 be 30 36 03 be
       0.7935376 -0.06597498 -0.2612055 -0.1281364
000040 8e 98 a3 bf d3 75 03 bf ba b3 86 3c a4 db 55 bf
       -1.2780931 -0.5135166 0.016443122 -0.8353827
000050 f1 3e 6b bf 8a 37 ed 3f a0 f8 ed bf dd b9 f0 be
       -0.91892916 1.8532574 -1.8591499 -0.47016802
000060 65 00 9f be 03 9b 81 bf f5 ad d6 bc ce 42 ca bf
       -0.31054989 -1.0125431 -0.026205996 -1.5801637
000070 27 e7 af bd 34 9e 5b 3f 6f 45 11 3d d4 b4 5c be
       -0.08589011 0.85788274 0.035466608 -0.21553355
000080 2e 44 44 3f 1d 26 e5 3d ff 84 9d 3f 7a 62 5f be
       0.76666534 0.1118891 1.2306212 -0.2181491
000090 8d f7 ac 3f 8f 63 37 3f 81 92 70 bf 40 76 81 3f
       1.3513047 0.7163629 -0.9397355 1.0114212
0000a0 c3 1e ee bf ff 70 11 3e ee e9 a7 3e 38 dc 19 3e
       -1.8603138 0.14203261 0.32795662 0.15025413
0000b0 6c 2c c4 bc 63 51 ae bf 35 be 80 3f 04 58 de bf
       -0.023946963 -1.3618587 1.0058047 -1.737061
0000c0 42 ac e2 3f fc a1 46 3f 52 61 42 bd 52 64 a0 3f
       1.7708819 0.7759092 -0.047456093 1.2530615
0000d0 77 a2 88 3f 1a 38 82 3f 36 78 87 3f be 04 45 3f
       1.067458 1.0173371 1.058356 0.7696036
0000e0 35 1f a8 3f 30 a9 0e 3f d2 f0 8b 3d 4e 7a 25 3e
       1.3134524 0.5572691 0.06833042 0.16159937
0000f0 03 14 1a bd b1 11 9d be a4 9f 0c 3f 4d c8 2b 3f
       -0.03761674 -0.3067756 0.5493109 0.6710251
000100 61 be 80 3f be b0 b1 3f e6 d1 e1 3c 8a 86 6f 3e
       1.0058099 1.3882062 0.027565908 0.23391166
000110 03 14 b9 3f 93 a9 9c 3f 25 7a 19 bf df e0 1d bd
       1.4459232 1.223925 -0.59952 -0.038544532
000120 b5 47 81 3e fc e1 35 3e 86 b9 68 3f 1d b0 a6 3f
       0.2525002 0.17761987 0.90908086 1.3022496
000130 a1 46 72 bf b5 0a 05 be ea a8 b1 bf 71 9d bb 3f
       -0.9463902 -0.12992366 -1.3879673 1.4657422
000140 4c 93 49 bf 51 68 22 3d 5d 9d 7a 3f 4b 22 e9 3d
       -0.7874038 0.039650265 0.9789637 0.11383494
000150 9b 1d a5 bf af 19 53 bf 2d 3a 10 3f 4f c1 98 3f
       -1.289966 -0.82461065 0.5633877 1.1933993
000160 92 6d 13 3f 0c b1 2e 3f 66 a3 15 3e 53 19 64 be
       0.57589066 0.682389 0.14613113 -0.22275285
000170 e5 5b 07 3e 30 7d 2e bf ae 94 9b 3f 8e b0 25 bf
       0.13218649 -0.6815977 1.2154748 -0.64722526
000180 40 8b 82 3e 62 27 68 bf ec ac b4 3d fa 37 45 3f
       0.25496864 -0.90685093 0.08822045 0.7703854
000190 16 ff e9 be f9 92 de bb e6 5e 4f be 81 68 10 3e
       -0.45702428 -0.006792423 -0.20251045 0.14102365
0001a0 0e 4a 75 be f4 a1 58 bf a4 9c da be 3e 09 56 3e
       -0.23954031 -0.8462212 -0.42697632 0.20901963
0001b0 6f 01 11 be 78 c6 32 3f 16 9d a6 3f fe 01 a5 3e
       -0.14160703 0.6983409 1.3016689 0.32228082
0001c0 7c 2b 24 3f 08 68 9e 3f 99 2d b0 bd b2 9b 22 bf
       0.6412885 1.2375498 -0.08602447 -0.6351882
0001d0 2a 79 4b 3f 64 d8 7e 3f a3 68 99 3e 8b e4 d9 bd
       0.79481757 0.99548936 0.29962644 -0.10639294
0001e0 18 d1 4b 3f 26 be 8e 3f e1 45 ba 3e 64 63 bb bf
       0.79615927 1.1151779 0.36381438 -1.4639707
0001f0 7d f0 00 c0 4d e3 c4 3e e9 78 b4 3f 26 42 14 bf
       -2.0146782 0.38454667 1.4099399 -0.57913435
000200 6c 8a 9b 3f e7 6b b0 be f6 42 1a 3c f3 56 30 bf
       1.2151618 -0.34457323 0.009415379 -0.68882674
000210 4d 67 de 3e e2 cc dd 3e 04 b4 dc be c0 7a 9e bf
       0.43438187 0.43320376 -0.4310609 -1.238121
000220 cc 67 7a 3f 5b 25 33 3f f4 0e 17 3f c1 55 01 3f
       0.9781463 0.69978875 0.5900719 0.50521475
000230 cc 47 3b 3f 2b ff 26 bf 79 bb b3 3e 43 9f 95 3e
       0.7315643 -0.65233105 0.35103968 0.2922307
000240 e1 89 e1 3f 52 e4 40 be 9b 0b 00 be 8f 14 93 be
       1.7620202 -0.18837097 -0.12504427 -0.28726622
000250 69 26 10 bf 1e cf 38 bf 5a 43 25 bf b9 30 58 3f
       -0.5630861 -0.72191036 -0.64555895 0.84449345
000260 e8 80 03 3e 7c cb aa bf 8a 1f 6c 3f 8e 77 2b 3f
       0.12842143 -1.3343349 0.92235625 0.669793
000270 bd 14 e9 bd 37 71 bd 3f 85 d6 77 3f ac fc d2 bf
       -0.11380909 1.4800175 0.96811706 -1.6483359
000280 a5 3b 93 3e c6 09 80 3f 9d 0d e0 3e e7 40 9b 3f
       0.28756443 1.0002983 0.43760386 1.2129182
000290 b7 af ff 3d d2 49 cd 3e f3 be fa 3e a3 52 d3 3e
       0.12484687 0.40095383 0.48973808 0.41273984
0002a0 8b 67 c4 3e 66 49 0b be ee 8d 91 be 65 66 de bd
       0.38360247 -0.13602218 -0.28428596 -0.10859374
0002b0 04 2a 5a 3f 33 27 3d 3f 29 bc 11 bf db e1 e6 3f
       0.8522036 0.7388794 -0.56927735 1.8037676
0002c0 f1 d3 95 3e 8a 92 2e bf 4e bb 3f 3f 70 46 80 3e
       0.2926326 -0.6819235 0.7489518 0.2505374
0002d0 da 6e 14 bf 04 b3 19 bf e9 70 cd be e2 2a 83 3d
       -0.57981646 -0.6003878 -0.40125206 0.064046636
0002e0 e8 8b 3d 3e e1 06 be 3e 7f c9 23 3f f1 11 90 3f
       0.18510401 0.37114623 0.63979334 1.1255475
0002f0 aa 3b be bd 21 e6 13 3f ac b7 ae 3f 63 7d b6 3f
       -0.09288724 0.57773024 1.3649802 1.4257015
000300 17 bc 1a bf 7f d4 4e 3f 6c be 6b 3e 64 69 de bf
       -0.6044325 0.80792993 0.23021859 -1.7375913
000310 73 c7 63 bf b6 42 b4 be da 1a a9 3e 43 39 e6 be
       -0.8897621 -0.35207146 0.330283 -0.44965562
000320 c7 f2 6e bc 53 aa 1b bf cf 7b 45 bf 42 c2 20 3f
       -0.01458425 -0.6080677 -0.7714204 0.62796414
000330 cf 11 0c bf 82 3d 0d 3f 9c 67 80 bd 6a ff 65 3d
       -0.54714674 0.5517198 -0.06269762 0.056151785
000340 a4 5a f2 3f b5 1d f0 3e 39 af d5 3e 1a d2 8c 3f
       1.8933911 0.46897665 0.41735247 1.1001618
000350 e7 a5 b5 3e aa c6 b3 b9 77 5d 71 3e dd d5 02 bf
       0.35478136 -0.00034289557 0.2357081 -0.5110758
000360 1f 45 8c 3f a3 f0 08 bf 61 9b 5d be c5 90 92 bd
       1.0958594 -0.5349218 -0.21641304 -0.07156519
000370 82 b4 36 3f 18 bf d7 3d d7 22 b0 3e 1d 2c f0 bd
       0.71369183 0.10534495 0.3440158 -0.11727164
000380 dd 7e ca 3e 1c 39 a0 3f fe ca b7 be 6c 9a 5d 3f
       0.39549914 1.2517428 -0.35897058 0.86563754
000390 8e 99 64 3f e6 a2 76 3f 5b 3d 4b bf e5 d7 8f 3f
       0.89296806 0.96342313 -0.79390496 1.1237761
0003a0 ec 58 77 bd 91 3e 99 3f 8d ea 6d bc a3 79 d0 3e
       -0.060387537 1.1972219 -0.014521253 0.407178
0003b0 d7 4a a1 3f 37 cc 01 bf b6 ca 15 3f 3d 84 15 3f
       1.2600964 -0.5070223 0.5851244 0.58404905
0003c0 e5 91 79 3f 27 14 dd be e6 4a af bf 8c 48 5f 3f
       0.9748824 -0.43179438 -1.3694732 0.8722007
0003d0 60 db f7 3d c1 d7 ea be 96 f7 25 be b3 82 14 bf
       0.12102389 -0.45867732 -0.16207728 -0.5801193
0003e0 0d 3a d1 3f 19 bc 1c bf d2 72 ab bf 5a 52 40 be
       1.6345841 -0.61224514 -1.3394415 -0.18781415
0003f0 f8 c5 e0 bd 3a 16 18 40 35 dc 41 3f a0 46 26 3f
       -0.109752595 2.3763566 0.75726634 0.64951515

l1.bias f4 [8]
000000 5a ce a1 3f c2 51 9f 3f 7b 94 76 3f 47 0e 35 3f
       1.2641098 1.2446826 0.96320313 0.7072491
000010 6c 54 c3 3f e0 75 26 3f f9 ac a8 3e 61 86 51 3f
       1.5260139 0.6502361 0.32944468 0.8184567

l2.weight f4 [8, 8]
000000 5c 5b 43 40 a4 f2 f6 3f 4b 26 d5 3f 0e 3e 85 be
       3.0524511 1.9292798 1.6652311 -0.26023906
000010 bb 94 11 40 0c 46 de bf d0 3a ab bf 7f bc 33 bf
       2.2747028 -1.7365127 -1.3377323 -0.702095
000020 4f 41 b3 be 35 66 af be 01 57 b1 be c8 51 22 3e
       -0.35010764 -0.34257665 -0.3463669 0.1585151
000030 07 81 cc be bc fc 5f be 46 c6 87 bd f9 67 60 3d
       -0.3994219 -0.21873754 -0.066296145 0.054786656
000040 54 8f 02 c0 e2 22 68 3f 9f 1a 0c 40 07 6c 8e bf
       -2.039998 0.90678227 2.1891248 -1.1126717
000050 b3 c4 9e 3f 3b 91 09 40 d1 a5 ce bf 61 cf 4f bf
       1.2403778 2.1494892 -1.6144353 -0.8117581
000060 b1 55 f4 bc 48 3b 90 be ee 4e 8b be f7 83 56 3e
       -0.029826017 -0.28170228 -0.27208656 0.20948778
000070 ab 63 44 be f0 c5 3d be 2f 40 30 3e 7b 38 9e be
       -0.19178645 -0.18532538 0.17211984 -0.30902466
000080 4c 69 cb bf ad d8 ed 3f 6c d9 0c 3f fd 66 20 c0
       -1.5891509 1.8581749 0.5501926 -2.506286
000090 0e 5f 54 3f 53 b7 0a bf a3 67 1e 40 f2 cf 04 40
       0.8295754 -0.5418598 2.4750755 2.075192
0000a0 d3 fb 11 3f 9b fc c3 3e 60 20 37 3f ea a2 0d 40
       0.5702488 0.3827866 0.71533775 2.2130685
0000b0 c2 a1 ba bf cb 73 a7 bf 4f 95 a5 bf e5 55 d2 3f
       -1.4580615 -1.3082212 -1.293619 1.6432463
0000c0 35 8d a4 be cf fc 48 40 8b 6e 75 bf 84 46 85 3f
       -0.32138982 3.1404302 -0.958718 1.0412145
0000d0 dc 81 22 bf 33 20 2b 3f 51 53 2c bf 5f 17 c5 3e
       -0.634794 0.6684601 -0.6731463 0.38494393
0000e0 42 54 de bf 15 e5 6e 3f b9 ce f2 bf 22 5d 0c 40
       -1.7369463 0.933183 -1.8969337 2.1931844
0000f0 ba 36 c0 3f e7 a1 7c 3f 45 3a 10 3f f8 45 3c bf
       1.5016701 0.98684543 0.5633891 -0.73544264

l2.bias f4 [8]
000000 f7 09 81 3f 4e b2 a3 be 40 84 ce 3e 11 be 05 be
       1.0081166 -0.31971973 0.40335274 -0.13060786
000010 57 d9 85 3e d8 e4 16 3f 8d b4 38 3f c5 4e c5 3e
       0.2614238 0.5894294 0.721505 0.3853666

l3.weight f4 [56, 8]
000000 43 a5 85 3f a9 06 4b be 26 16 94 be 35 84 50 3e
       1.0441059 -0.1982676 -0.28923148 0.20362933
000010 33 7e 2d c0 a9 bf 8a bf 72 8e 72 bf cd 19 17 c0
       -2.7108276 -1.083974 -0.94748604 -2.3609498
000020 2a 58 97 be 04 70 93 bd 7a 9b f9 bf 4b 5f 9d 3e
       -0.2955945 -0.071991 -1.9500573 0.30736765
000030 0a 22 29 3f 48 91 22 c0 40 91 99 bf 24 a5 34 c0
       0.66067564 -2.5401173 -1.1997452 -2.8225794
000040 0e ea fd bf db ec 60 3d 4a 18 a1 bf a9 f2 3b be
       -1.9837053 0.054913383 -1.2585537 -0.18354286
000050 7b 09 37 3f 71 70 30 bf 45 85 d9 be 0b 2f 90 bf
       0.7149884 -0.6892157 -0.4248449 -1.1264356
000060 db 75 92 be bb 64 22 be 2f ab 9b be bb 55 8b 3e
       -0.28605542 -0.15858738 -0.3040404 0.27213845
000070 bd 90 2b 3e 1d f7 08 c0 03 37 c8 bd 86 f6 73 c0
       0.16754432 -2.1400826 -0.09776118 -3.8119216
000080 46 95 52 be cf 91 34 be ce eb 19 c0 83 e2 c7 bd
       -0.20564756 -0.17633747 -2.4050174 -0.097600006
000090 dc ae 03 3e b1 1a 0b c0 7a 00 0b 3e aa 48 9a bf
       0.12859672 -2.173504 0.135744 -1.2053425
0000a0 6a 8e 90 be 73 56 e8 be 4b 6d b5 3e 10 45 57 3e
       -0.28233653 -0.45378456 0.35434946 0.21022439
0000b0 f3 df 39 c0 5f d3 fc bf 02 4c f7 3d 38 a9 66 be
       -2.9042938 -1.9752005 0.12075044 -0.2252549
0000c0 e6 d3 79 bf dc 63 3c be 11 78 4d c0 7d 8b 8b be
       -0.97588956 -0.18397468 -3.2104533 -0.2725486
0000d0 ff a9 df be 3f f5 dc bf 41 15 77 3f 5c fc f6 be
       -0.43684384 -1.7262343 0.96516806 -0.4823941
0000e0 15 42 ac be 94 5f c0 bd fe 33 6a 3e 1b 81 65 be
       -0.33644167 -0.0939323 0.22871396 -0.22412531
0000f0 38 bb 6f bf 5b c5 54 c0 29 15 9f 3e e7 2d 4e bf
       -0.9364505 -3.3245456 0.3107083 -0.8053879
000100 d2 10 65 3e 62 d4 c1 bd b1 67 3c c0 11 cb a4 3e
       0.22369698 -0.09464337 -2.9438288 0.32186177
000110 9b 39 ca bf f7 65 06 c0 8f 5c 0c bf ae 54 3e 3f
       -1.579883 -2.0999734 -0.54828733 0.7434796
000120 08 87 4b bf 96 d8 f1 be 28 32 1d 3f 4f 43 ac be
       -0.79502916 -0.47235554 0.6140466 -0.33645102
000130 21 f0 00 3e b3 a7 21 c0 d2 ff 7f bf 56 03 05 c0
       0.12591602 -2.5258605 -0.99999726 -2.0783286
000140 d3 7d 8f bf fe d6 06 bf 89 e3 aa bf d4 79 6a 3e
       -1.1210274 -0.526718 -1.3350688 0.22898036
000150 1a ac dc be 26 74 1c 3e 62 4f e6 3e 65 21 64 c0
       -0.43100053 0.15278682 0.4498244 -3.5645382
000160 de 77 86 bf a5 03 b1 3d c0 1c ed bf ae 46 a6 bc
       -1.050533 0.08643273 -1.8524399 -0.020297375
000170 11 14 e4 3e 15 65 02 c0 63 17 57 3f 73 e3 31 c0
       0.4454656 -2.0374196 0.8402006 -2.7795074
000180 c3 7d a8 bf f7 fa ef 3d a0 19 4c bf 13 a6 17 3e
       -1.316338 0.117177896 -0.797266 0.14809446
000190 d7 85 b7 bd 6d 3a 14 3f 87 ce 4d bf 11 d7 05 c0
       -0.08961075 0.5790165 -0.8039326 -2.0912516
0001a0 62 dd e9 3e fb 37 dd 3d b6 1b ae 3e 02 4e cd bd
       0.45676714 0.10801693 0.34005517 -0.100246444
0001b0 43 57 57 c0 f2 eb 53 c0 84 01 8a bf 87 31 05 bf
       -3.364701 -3.311276 -1.0781713 -0.520287
0001c0 a6 57 aa 3e 72 0a 45 3e dd 9b a3 3e b4 86 b2 3e
       0.33269995 0.19242266 0.31954852 0.34868395
0001d0 1b f1 58 c0 02 18 04 bf e8 56 74 c0 be e5 8b 3e
       -3.389716 -0.51599133 -3.8178043 0.27323717
0001e0 7c 2d ed bf eb d5 1c be 9e e6 e7 3e db 0c 9e 3e
       -1.8529506 -0.15315978 0.45293134 0.30869183
0001f0 df 52 ed bf 72 17 8f bf 14 50 c0 be bf 3e 0b 3f
       -1.8540915 -1.117903 -0.37561095 0.5439262
000200 21 50 17 bf 7a d4 da 3d 6b 53 c9 bf 28 05 12 3e
       -0.5910664 0.10685058 -1.5728582 0.1425978
000210 c6 09 d7 3e 40 0c ba be 09 94 b6 bf 87 c3 01 c0
       0.41999644 -0.3633747 -1.4263927 -2.027559
000220 f4 67 40 3f 19 26 13 be b8 1c 47 bf 3a 8f 2e 3e
       0.7515862 -0.14370002 -0.77778196 0.17046824
000230 20 fd f0 bf 59 e4 9b bf 27 24 49 c0 fd dd 1f 3d
       -1.8827248 -1.2179061 -3.1428316 0.039030064
000240 62 ec bd bd 6e c1 0a be 63 0d 87 3e 3c ba a1 be
       -0.09273602 -0.1355035 0.263774 -0.31587398
000250 f3 ab c6 be 04 4e 6a c0 88 cf 4d bd 11 36 04 c0
       -0.38803062 -3.6610117 -0.050246745 -2.0658
000260 f2 0b 9c 3e 37 59 0c be 3b 17 c2 bf 68 0d 8c 3d
       0.30477864 -0.13705908 -1.5163339 0.068384945
000270 1a d0 9e bf 23 5a b7 bf 18 80 8d 3d 92 98 ee be
       -1.2407258 -1.4324383 0.069091976 -0.46600777
000280 66 07 8b bf e0 5d 95 be a8 b1 96 3e 57 77 b3 be
       -1.0861633 -0.29173183 0.29432416 -0.35051987
000290 91 f2 01 be 0b 0b f4 bf 28 94 b2 3d d4 51 98 bf
       -0.12690188 -1.906587 0.08719665 -1.1899972
0002a0 53 1b 46 bd 03 d2 cf bd 9f 81 49 3f 54 a8 b6 bd
       -0.048365902 -0.101474784 0.7871341 -0.08918825
0002b0 1b a9 59 bf 5e ef 5d bf f0 b9 c6 bf ef e4 b4 bf
       -0.8502366 -0.8669337 -1.5525494 -1.4132365
0002c0 44 3d 4f c0 a6 49 d0 3d 57 4f 58 bf e2 96 41 3e
       -3.2381144 0.10170297 -0.84496063 0.18905213
0002d0 ae f5 92 be b3 91 53 3f ca 99 5f 3e 43 40 63 c0
       -0.28703064 0.82644194 0.2183601 -3.5507972
0002e0 7e f9 04 3f a2 bc c6 3a 1b bd 54 bf 60 de 7e be
       0.51943195 0.0015162418 -0.8310105 -0.24889517
0002f0 22 55 1d be 37 3c 14 c0 e6 83 2a c0 fa 40 db bf
       -0.15364507 -2.3161752 -2.6643004 -1.7129204
000300 e0 91 43 bf a9 73 0f 3e f5 00 20 bf 7a 24 23 3e
       -0.7639446 0.14008965 -0.6250146 0.15931883
000310 24 82 a1 be 26 6b 50 bf 31 0c b2 3d 04 a6 16 bf
       -0.31544602 -0.81413496 0.086937316 -0.5884707
000320 7b 95 b3 be da 8c a7 be 27 8b 8d 3d 95 8c 35 3d
       -0.35074982 -0.3272465 0.06911307 0.044323523
000330 1d cf b4 be 80 9d f1 bf f9 a8 25 bf dd 83 aa be
       -0.35314265 -1.887619 -0.64710957 -0.3330373
000340 fd 04 a4 3e cb 57 00 3e f0 40 47 3e 67 23 97 bd
       0.32035056 0.1253349 0.19458365 -0.07379799
000350 b5 9f 93 bf b4 c7 2e c0 da 09 19 bf 43 bf 8f bf
       -1.1533114 -2.730939 -0.5978066 -1.1230243
000360 76 81 46 bf d0 73 d2 be 2b c7 33 bf 11 71 4f be
       -0.7754129 -0.41103983 -0.7022578 -0.20257975
000370 11 42 be bf 54 e6 36 c0 ea 72 af 3e a2 17 f9 3e
       -1.4863912 -2.857808 0.3426736 0.48650843
000380 44 53 a2 bf 39 70 a2 be 4b 82 bd 3d cb d6 6a be
       -1.2681661 -0.31726244 0.09253367 -0.229335
000390 88 a7 96 be df 32 2f c0 df 65 54 be 9c 1b 01 3e
       -0.2942469 -2.73748 -0.20741986 0.12608188
0003a0 24 6e 04 3f c4 ab 03 3e 9d d7 15 c0 77 43 9b 3e
       0.5173056 0.12858492 -2.341285 0.3032491
0003b0 47 81 e1 bf 6d f2 12 bf b0 a4 0a 3e 21 34 29 c0
       -1.7617577 -0.5740116 0.13539386 -2.6438067
0003c0 ed d4 7c c0 37 91 d4 be 77 0c 89 bf 86 f6 81 be
       -3.950496 -0.4151704 -1.0706929 -0.25383395
0003d0 07 e9 a6 3e 9d 4e 74 3e ec f5 97 3e 63 c5 15 c0
       0.3259966 0.23858114 0.2967981 -2.3401725
0003e0 c8 73 8b bf 92 eb 45 be bd 2b 84 bf 26 91 dc 3d
       -1.0894709 -0.19328144 -1.0325848 0.10769872
0003f0 47 02 9f bf 34 4a d5 3e 35 bb 98 3d cd 69 bc bf
       -1.242257 0.41658175 0.07457582 -1.4719788

l3.bias f4 [56]
000000 2b ca 23 3f 82 7e b6 3e 2b 78 f5 3c 3d 6a 14 be
       0.6398036 0.35643393 0.029964527 -0.14493652
000010 d1 b7 9b be 46 99 73 be d5 55 24 3f 64 06 cc be
       -0.30413678 -0.23788938 0.6419347 -0.39848626
000020 4d b5 d1 3e ad dc b5 3e e1 d7 df 3c c9 3f 9b 3d
       0.40958634 0.35519925 0.027324619 0.075805254
000030 12 ea 83 be bc 98 a2 be 5c 05 da 3d c1 a9 18 3e
       -0.2576452 -0.31757152 0.106455535 0.14908506
000040 eb b6 56 3e d8 ec b3 be 9e c0 10 bf 74 24 46 3e
       0.20968215 -0.35141635 -0.5654391 0.19349843
000050 5d a5 3a be 48 f8 0c bf 3d e4 49 bd 28 d2 24 3e
       -0.18227144 -0.5506635 -0.04928993 0.16095793
000060 4a 27 fe be 38 74 4e bf 81 74 0e bf d0 1a 14 be
       -0.4963935 -0.80646086 -0.5564652 -0.14463353
000070 b6 7a 04 bf c1 8c 1c 3f 35 db e5 bd 3e 0b 34 3e
       -0.5174974 0.61152273 -0.11223451 0.17582414
000080 65 07 62 bd 13 7f 46 bf cc 21 8f 3d d6 30 b9 be
       -0.055182833 -0.7753765 0.06988868 -0.3617007
000090 7d 24 1f bc 5a 4c 6e be 71 76 1d 3f 5c 98 a5 be
       -0.009713289 -0.23271313 0.6150885 -0.32342803
0000a0 de 54 f0 3c a2 41 32 bf a9 0a c6 be 52 c2 03 be
       0.029337343 -0.696314 -0.38680008 -0.12867096
0000b0 0d bb c8 be a2 1d cd be 60 52 11 3e d1 3e 70 3e
       -0.39205208 -0.4006167 0.1419158 0.23461463
0000c0 7b 93 22 3d ed f2 61 be cd b0 a6 3e 30 77 bf be
       0.03969143 -0.22065325 0.32556763 -0.3739562
0000d0 3e bc a6 3e e6 8e 3c be 6d 9b 80 be 5a 82 6a be
       0.32565492 -0.18413886 -0.2511858 -0.22901288
