data.pth (torch, 15103 bytes, 6 tensors)

l1.weight f4 [8, 253]
00000000: 41c0 863e 748f ea3d 0065 943f 5b50 923f
00000010: ff89 efbe f74e 09bd e9a0 603f 84f3 353e
00000020: a4f4 fc3e db06 2bbe 5910 2ebf a0a1 3fbf
00000030: 933b 20bf a8d8 463f 4582 48bf 5128 9e3f
00000040: b84a 3ebf 7315 143f 4990 343f 7ad4 5a3e
00000050: e1fa 373f d069 0bbf a095 163e 028a 1c40
00000060: f0ed 373e 5a87 ae3e c2e3 79be 170a 5cbe
00000070: 4a63 f2be db74 05bf 49c2 203f 5fd3 fe3e
00000080: af50 763f c04b 1940 52fb 97be 702b 143e
00000090: cd64 68bc d910 523f 892a 273f 9ca2 a6be
000000a0: fa68 613e 5453 33bd 2fce 85be 3a30 94bf
000000b0: 4edf aabd edd8 f83c f130 f73e 2a3b 673e
000000c0: 0b8d 483f d291 0cbf 86f7 26bd a2bd 563f
000000d0: 60c0 003f ee24 60bf 2593 1c3d 4a1c 613e
000000e0: 99f9 233f b3a1 cfbe dad0 813f ed76 703e
000000f0: 0044 bebe eb97 2abf 1f2d 973f d522 70bf
00000100: f42f 233f 68e5 523f ab55 b93e 9b8e 2cbc
00000110: 3e07 633f d82d a63e 43f3 ea3e fda1 53bd
00000120: 627a c7be 6e34 02bf 5c81 7c3e cb19 713e
00000130: e5c4 ddbe bd28 693e 6916 f4bd 5240 febd
00000140: c4e1 3e3e 5079 153e e045 1fbf 4a01 adbe
00000150: 3a08 93be d15e 813f 9555 0e3f 00d0 163e
00000160: 5f9c c33f 0bf7 2440 7b1d e1be 341c 7a3e
00000170: 2889 42bd 4237 a93f 2f2f c33f e6b9 c83f
00000180: 5c1a a33f 78d5 9fbe df03 cdbd 9bab 1fbf
00000190: e40c 0c3f 146b 8bbf b70b 1fbf 75c7 303d
000001a0: ac74 07bd ba7b 1ebe b980 f7be fb15 9ebd
000001b0: 0707 6cbe 96c0 043e ad9b be3d b7b7 6bbe
000001c0: e591 cabe 9664 793e 5025 6dbe 45a1 61bf
000001d0: 3d6f 943f 4ef0 4ebf df72 a63e 85c7 a73f
000001e0: 53b4 bfbe abd0 05bf 0da1 c23e 5bea 223f
000001f0: 3aea a4be 9605 893e 17e9 4bbf 2242 44bf
00000200: b437 f2bd cb26 0c3f 4108 193f e2fe 20bf
00000210: 2db6 6d3f 480e 343e 876e 21be 168f babe
00000220: 741f 59bf f966 29bf cc88 a23d 33ea 8ebe
00000230: aee4 a93e 7af1 683e 4e27 533e df77 643e
00000240: 9f16 a9bd fd30 3a3f f06f 4cbe 792c 3ebf
00000250: f534 17bf 8127 333f 7eb3 c33e ef14 323f
00000260: 2f07 34be a476 66bf 8f0a 083f da96 9a3e
00000270: 7707 a53d 508d 3ebf 1b30 b0bd 3136 203e
00000280: 5f07 f5be 743d 50bf 2e91 283f 0987 f3be
00000290: 5a35 893d 78f3 58bf 494c 913e 2938 e33d
000002a0: 5eeb 15bd a78c 383e 9608 56bf 7bd4 b33f
000002b0: 2d43 ebbe b168 56bf 0ab6 a23e b7ae c9be
000002c0: 4c1c 9dbd d211 fe3f 7a46 9f3d 4001 813e
000002d0: befb 353f 73e7 413e d35b a63e 7dcd 513f
000002e0: c04f 553e 8f30 563f b9be 5c3e 52c4 c93e
000002f0: 3ba7 7fbf 6c7e 333e 15e8 04bf 8983 ed3d
00000300: 7450 4d3f b0df 80be d29f f43e e8ef 4b3e
00000310: 8e6f 7fbe 0075 223d cb2f a13f abff d93e
00000320: a256 26be 3d8c f7be 8143 933e dabc 093f
00000330: 8c79 eb3e 0b93 debd 14e1 723f 566b 0f3d
00000340: a7a1 03bf dea8 913c 1736 513f 7456 0f3e
00000350: 1524 b03e cde6 1cbf abef 91be a0bf 733d
00000360: cb00 63bf 2c0f 3a3e faf4 a03f afe6 cf3f
00000370: 7827 3a3d d821 9e3e 1c56 bcbe e22d 263f
00000380: 11fb d4bd 64ab 53be 3974 173f c1d1 0dbf
00000390: 7218 0cbf 9fc4 53be 3932 4f3f 8c98 0c3f
000003a0: 9c42 8a3f d53b 813e c41b d0bd fee7 2e3e
000003b0: d587 923e cfe2 1f3f fc25 38bd 71bf a33e
000003c0: c94d 6bbf 17e7 e4be d8b2 04bf 37b9 f4bd
000003d0: f54b 55be 4a9d babd 09d9 1b3f e152 6b3f
000003e0: 3827 893d a6b4 eabd 0793 46be 42d2 203f
000003f0: 86d8 52bf c7de 403e 38aa 1c3f 1cdf 9ebc
0.26318553 0.11453143 1.1593323 1.1430773 -0.4678497 -0.033522572 0.8774553 0.17768675
0.49405396 -0.16701834 -0.67993695 -0.74855995 -0.62590903 0.7767434 -0.78323776 1.2356054
-0.7433276 0.5784523 0.7053266 0.21370116 0.71867186 -0.5445833 0.14705515 2.4459233
0.1796186 0.3408764 -0.24403289 -0.21488224 -0.47341377 -0.5213143 0.62796456 0.49770638
0.96216863 2.3952484 -0.2968393 0.14469695 -0.014184189 0.8205696 0.6529928 -0.32545936
0.22012702 -0.04378064 -0.26133868 -1.1577218 -0.08343373 0.030376876 0.48279527 0.22581163
0.78340214 -0.54910004 -0.0407634 0.83883107 0.5029354 -0.8755635 0.038226265 0.21983448
0.6405273 -0.40553054 1.0141861 0.23482867 -0.37161255 -0.6663806 1.1810645 -0.9380315
0.63745046 0.82381296 0.36198172 -0.010532047 0.88682926 0.3245685 0.4588872 -0.051668156
-0.38960558 -0.5086125 0.24658722 0.23544995 -0.4331428 0.22769447 -0.11918337 -0.12414612
0.1864081 0.14597058 -0.62215996 -0.33790046 -0.28717214 1.0107061 0.5559934 0.14727783
1.5282096 2.5775783 -0.43967804 0.24424821 -0.047494084 1.3219988 1.5248774 1.5681732
1.2742419 -0.3121755 -0.10010504 -0.62371224 0.5470717 -1.0892053 -0.6212725 0.043158967
-0.03307025 -0.15476885 -0.48340395 -0.07719036 -0.23049556 0.1296409 0.093070365 -0.230193
-0.39564434 0.24354777 -0.23158765 -0.881367 1.1596447 -0.80835426 0.32509515 1.3107764
-0.37442264 -0.5227153 0.38013497 0.6363885 -0.3220995 0.26762074 -0.7965254 -0.7666341
-0.11827031 0.54746693 0.5977822 -0.6288892 0.92856103 0.17583573 -0.15764819 -0.3643729
-0.8481362 -0.6617275 0.07936248 -0.27913055 0.3318228 0.22748366 0.20620462 0.22311352
-0.08256268 0.72731 -0.19964576 -0.7428661 -0.5906518 0.69982153 0.3822288 0.6956319
-0.17580865 -0.9002478 0.5314111 0.30193216 0.080580644 -0.74434376 -0.086029254 0.15645672
-0.47857186 -0.8134377 0.65846527 -0.4756396 0.06699629 -0.84746504 0.28378513 0.11094696
-0.036601417 0.18022405 -0.8360685 1.4049219 -0.4594969 -0.83753496 0.3177951 -0.3939111
-0.07671413 1.9849188 0.07777114 0.25196266 0.71087253 0.18935947 0.3249193 0.81954175
0.20831203 0.83667845 0.2155713 0.39407593 -0.9986455 0.17528695 -0.5191663 0.11597354
0.80200887 -0.2517066 0.47778183 0.19915736 -0.24944898 0.03966236 1.259271 0.42577872
-0.16243985 -0.4834918 0.2876244 0.5380379 0.4599117 -0.1086789 0.9487469 0.035014473
-0.51418537 0.017780717 0.8172316 0.13997823 0.34402528 -0.61289674 -0.28503165 0.05950892
-0.88673085 0.1816985 1.2574761 1.6242274 0.045447797 0.30885196 -0.36784446 0.6491376
-0.103994496 -0.20670849 0.59161717 -0.55398184 -0.547248 -0.20680474 0.8093601 0.5492027
1.0801578 0.2524096 -0.10161546 0.17080685 0.28619257 0.6245546 -0.0449581 0.31981996
-0.91915566 -0.44707558 -0.51835394 -0.119493894 -0.20829757 -0.09112032 0.60878044 0.9192334
0.066969335 -0.11460237 -0.19392024 0.6282083 -0.8236164 0.18834983 0.61197233 -0.019393496

l1.bias f4 [8]
00000000: e51e ec3f 9bfc 1b3f de8b a93f f480 da3e
00000010: 7162 153f a0ee 113f 50e3 323f 9972 4e3f
1.8446928 0.6093232 1.3245809 0.42676508 0.58353335 0.5700474 0.698781 0.8064361

l2.weight f4 [8, 8]
00000000: 5987 2ebe 14c2 a0be 18cc b4be 49ca 71bd
00000010: 9841 94be 405c a43d c023 aabc 0a96 f43c
00000020: 88b7 00bf 39d3 b53e 2304 703f 4fce dabf
00000030: c1f3 0240 9b2a eebf 48de ba3f 4aef 3ebf
00000040: 1f37 5dbe b397 a9be 50f5 0440 0f29 923f
00000050: eb2e f23f f7dc 8c3f 5410 e13e 1bf4 3040
00000060: cdce cdbe 67cc f23f f27b 4fbe c3ed 3540
00000070: fc48 65bf ffc0 0740 1e48 a63f b283 4ebf
00000080: 42a2 9bbf 589c e83f 3aad 98bf 203d a6bf
00000090: 5b0c 143e b5dd 423d 3d8d b03f b2d4 983f
000000a0: b901 2f40 1e1b a63f 252f d23f 1beb 39bf
000000b0: d779 bebf a059 8ebe da13 413e e562 a13c
000000c0: 049d c03f caee a4be 9843 453f e863 3dbf
000000d0: f90b b73e f777 b43d da42 d03f be08 d3bf
000000e0: a3d4 2240 0c27 99bf a012 d5bf 8d94 5b3f
000000f0: a451 e43e 1b8d f63f fa29 0d3e cb27 32bf
-0.17043819 -0.3139807 -0.3531196 -0.059030805 -0.28956294 0.08025408 -0.020769 0.0298567
-0.50280046 0.35512713 0.9375631 -1.709421 2.0461276 -1.8606752 1.4599085 -0.74583876
-0.21603058 -0.3312355 2.0774727 1.141878 1.8920568 1.1004933 0.4395777 2.764899
-0.4019684 1.8968629 -0.20262125 2.8426368 -0.8956449 2.1211545 1.2990758 -0.806697
-1.2158892 1.8172712 -1.1927865 -1.2987404 0.14457838 0.047574718 1.3793103 1.193991
2.7344801 1.2977026 1.6420637 -0.7262437 -1.4880933 -0.27802753 0.18855229 0.019700477
1.5047917 -0.32213432 0.77056265 -0.7398057 0.35751322 0.08811944 1.6270401 -1.6487043
2.5442283 -1.1965041 -1.6646309 0.85773546 0.44593537 1.9261812 0.13785544 -0.6959197

l2.bias f4 [8]
00000000: c123 49be 6e17 4dbe bcdb a93e 08a4 ffbe
00000010: c87b 7d3e 4905 883f 8218 883f 5587 db3e
-0.19642545 -0.20028469 0.33175457 -0.49929833 0.2475425 1.0626613 1.0632479 0.42876688

l3.weight f4 [23, 8]
00000000: 24d8 e7be a028 64c0 0f69 cfbe 6d8d 33bf
00000010: 1e30 b8bf e045 993d 6abd 95bb a700 3abf
00000020: a442 ccbe a38f 93c0 cc5a c1bf ca80 80c0
00000030: 6b7e 50bf 7738 023f 66a4 393f a6f5 09be
00000040: 813c 8e3d 4dd9 09bf faeb 0ebe c113 81c0
00000050: 33ab 1fc0 b541 91bd edf6 8c3e 5d29 43bf
00000060: fe16 96bc d13b 953e d332 3c3e e8d5 37c0
00000070: bdc4 a4bf 45cd 94bd ece5 4ac0 e03e 41c0
00000080: f1eb 9ebe 1abe f2be cfea 54bf a4ea 38bf
00000090: c605 abbf 182e c43e 43f9 733e 8727 27c0
000000a0: 136c 163e 5f72 3ac0 167a 94bd fe30 2ac0
000000b0: 5cf3 68bf 5424 3a3f a5b9 d7bf b01b 36c0
000000c0: b276 a9be 4fbc 42c0 43b4 123f ab6c 9abf
000000d0: 77e9 dcbf 164c 1ebf 43a0 54c0 db24 16c0
000000e0: 434a 8abd 8b44 73bf 058c 0cbf 70f9 e53e
000000f0: b9b0 c7bf 5a73 44be d0fe 4ac0 783f 57c0
00000100: 34dd cfbe 1d3c d8bf 4307 1cbf 398a cbbe
00000110: 2e01 bcbf db27 17bf 7b6b 92c0 ea3a a23f
00000120: 3035 353e 190d 8cbf b9f2 923e e9c1 063f
00000130: 7d4a bfbf 2730 2ac0 79aa febf af54 69bf
00000140: f4a8 b4be 936d 933e 288a 0abe 282b 03c0
00000150: 30f1 31c0 c003 4cbf bfd1 533f 0074 89c0
00000160: fe50 99be 6acc a23e 342a c2be 5631 85be
00000170: 7224 1a3f b95e b2bf db58 10bf fbd1 b8bf
00000180: 64c9 0b3e 8eff 933e bd2a 3d3f 6edf babf
00000190: a447 aebf 3c6f 31c0 da95 7cbf 0039 67bf
000001a0: 5232 08be 192f 073e 2be1 b93e ee4f 80bf
000001b0: ed7a 863f 8ad9 4cc0 a3e9 2bc0 3ff2 aabf
000001c0: a81e 5e3e f519 88bf ecc3 2cc0 64e6 613e
000001d0: 7b8b 26bf b941 e83d aad6 5b3b 7107 aa3e
000001e0: 4479 95be 887f 253f b12a 19c0 26e1 663e
000001f0: d33d 0d3f d4a3 fcbe 70ab 723e 27a3 a4bf
00000200: 6ee2 b63d 640e 87bf 6363 d1bf f470 c03e
00000210: 3a4d 6e3f aa9e 3cbf e2f9 0ec0 a1c9 62bf
00000220: 19a2 77be 77c7 c3be 8dcc 9dbf 942f 533f
00000230: 868c b73e 04f3 f5bf 523d 04be 01b1 60be
00000240: bd2f 1ebe 9439 253f a875 4fbc 5fcf 91be
00000250: 40b5 b7be 61b5 32c0 30f3 da3e 667a 02c0
00000260: bdb3 75be 1322 8ebf e6a9 b5bf 80be 1d3f
00000270: e511 85bf 9c75 e3bf 0ff1 f3be 785b 8c3f
00000280: 1898 483e 17af a53e fca8 e0bf be1c 2dbf
00000290: 7c2f 4d3e 4b48 bdbf 52a9 ea3e c6c8 983e
000002a0: 0081 c4be 312f 8c3e 736c f9bd e7e8 293e
000002b0: f2d6 f0bf e9a3 7fbf fbef 723e 6406 8dbf
000002c0: fd89 8bbd eddf e2bf edd2 c6bf 136d c1bf
000002d0: e4f2 d0bf 725e 35bf 0468 a13e 96b4 913f
-0.4528209 -3.5649796 -0.4050984 -0.70137674 -1.4389684 0.07484031 -0.004569699 -0.72657245
-0.39894593 -4.611284 -1.5105834 -4.0157213 -0.814429 0.5086741 0.7251648 -0.13472614
0.06945134 -0.538472 -0.13957205 -4.0336614 -2.4948242 -0.07092611 0.2753214 -0.7623499
-0.01832151 0.291472 0.18378763 -2.8724308 -1.287254 -0.072657146 -3.1702833 -3.0194626
-0.31039384 -0.4741066 -0.8317079 -0.72233033 -1.3361137 0.38316417 0.23825555 -2.6117876
0.14689665 -2.9132307 -0.072498485 -2.6592402 -0.90996337 0.7271168 -1.6853529 -2.84544
-0.3309837 -3.0427434 0.5730631 -1.2064413 -1.7258748 -0.6183485 -3.3222816 -2.3459995
-0.067524455 -0.95026463 -0.5490115 0.44916868 -1.5600806 -0.19184628 -3.1718025 -3.3632488
-0.40598452 -1.6893345 -0.6094858 -0.39753893 -1.468786 -0.5904519 -4.57562 1.2674229
0.1769607 -1.0941497 0.28700808 0.52639633 -1.4944607 -2.659189 -1.9895774 -0.9114484
-0.3528515 0.28794536 -0.13529265 -2.049509 -2.780346 -0.7969322 0.8274192 -4.29541
-0.29944605 0.3179658 -0.37922823 -0.26014203 0.6021186 -1.3935157 -0.5638558 -1.4439081
0.13651043 0.2890591 0.7389334 -1.4599435 -1.3615613 -2.7724142 -0.98666155 -0.9032135
-0.13300446 0.1320156 0.36304602 -1.0024393 1.0506264 -3.2007775 -2.686135 -1.3355178
0.21691382 -1.0632921 -2.6994581 0.22060543 -0.6505658 0.113406606 0.0033544698 0.33208802
-0.2919408 0.6464772 -2.3932307 0.22546825 0.5517246 -0.4934374 0.2369821 -1.286229
0.08929907 -1.0551267 -1.6358455 0.37586176 0.9308659 -0.736796 -2.2340016 -0.8858891
-0.24182929 -0.38238117 -1.2328049 0.82494473 0.35849398 -1.9214787 -0.12914017 -0.21942522
-0.15447898 0.6454098 -0.012662329 -0.28478524 -0.3588047 -2.7923205 0.42763662 -2.0387206
-0.23994346 -1.1104149 -1.4192474 0.61618805 -1.0396086 -1.7770267 -0.4764485 1.0965414
0.19589269 0.32360145 -1.755157 -0.6762198 0.20037645 -1.4787687 0.45832306 0.29840678
-0.3837967 0.27379754 -0.12178888 0.16592751 -1.8815596 -0.9985948 0.23724358 -1.1017575
-0.068134286 -1.7724587 -1.553312 -1.5111412 -1.6324124 -0.7084724 0.3152467 1.1383235

l3.bias f4 [23]
00000000: f6df 273e 79f2 c6be 0973 343d 12b8 0ebe
00000010: 6936 ccbe b3b1 9bbe f3a3 4c3e b341 793e
00000020: 116f f33e 1ed5 c53e bbc7 9b3e 3c3f 2bbd
00000030: ac1b 0cbe c7be adbd 2bfc d8be d8f4 14be
00000040: 011f 093e acd8 8fbe b55a 4ebf bf75 f63c
00000050: f257 84be 4016 48be f1f1 dd3d
0.16394028 -0.38856867 0.04405502 -0.13937405 -0.39885262 -0.3040901 0.19984417 0.24341469
0.47545674 0.38639158 0.3042582 -0.041808352 -0.13682431 -0.084836535 -0.4237989 -0.14546525
0.13390733 -0.28094995 -0.8060716 0.030085443 -0.25848347 -0.19539738 0.10837162
