data.pth (torch, 14591 bytes, 6 tensors)

l1.weight f4 [8, 244]
0.28719512 0.03834386 0.2594909 0.29913786 0.5255158 -0.1988276 1.4779897 -0.2212802
-0.36501482 0.26916817 -0.55060697 -0.6414163 -0.34986493 0.29852664 -0.86818254 1.441114
-0.37125725 0.45931417 0.7189754 0.5179352 -0.308495 -0.60726696 -0.16874626 -0.5232999
-0.19860981 -0.90187395 -0.09919856 -0.047386386 0.003700371 -0.5168257 -0.14434396 1.9432781
-0.03266337 -0.19507048 -1.2363303 1.1259807 1.3714361 0.23117918 -0.5386273 0.4379166
-0.5113027 -0.28043064 -0.23961087 -0.3589024 -0.7511278 -0.35250193 -0.5843951 1.0443621
0.19750775 2.2030056 0.8607152 0.025635542 0.21861441 0.077131115 -0.780052 0.17753872
0.75423986 1.6361544 0.2575504 -1.067033 -0.69797426 0.13065428 -0.4516424 -0.55934715
-0.14306901 0.49412206 -0.5725502 -0.09335436 0.2950599 -0.19425692 0.4316415 -0.23120123
-0.5854081 -0.392508 -0.89967346 0.38928407 0.64952666 -0.18465292 0.34005013 0.8394978
-0.6477455 -1.0635293 -0.0026363118 -0.25923616 1.0949914 1.6420975 0.06855537 -0.18217468
0.070903376 1.9106464 -0.7563532 1.8741574 1.6832054 -0.33873752 0.19496915 1.0138465
0.14938208 0.8975675 -0.031831298 -0.5747274 -0.01507828 0.40083385 -0.62010866 0.021285309
0.27784216 0.61903507 0.58935577 0.2511585 0.37430477 0.47547668 -0.041166473 0.8498503
0.2665376 0.9280894 0.07451309 1.2965769 0.19992837 0.9737296 0.18287112 -1.0806844
-0.7556413 0.15425804 0.68710214 1.5423385 0.97035533 0.5543012 0.61499107 -0.5778352
1.4836464 0.3749457 -0.8108363 1.0533327 -0.22210161 0.022440188 0.4915323 0.6877983
0.6130407 -0.113489926 -0.083766505 -0.42745543 -0.8768331 -0.72722423 0.3233689 -0.7496302
0.064387195 -0.29099202 -0.93135583 1.4421833 0.12114871 0.46523595 0.25899464 0.55268854
0.37563923 -0.8258375 -0.5125717 0.8065105 0.5232357 -0.21769337 0.7079409 -0.15727772
-0.93379843 0.34547082 0.6556021 -0.2711061 -0.91425276 0.564197 -0.10218672 0.8250402
0.371169 -0.7265628 0.5099466 0.42257863 -0.84962857 0.06803835 -0.21772699 0.83746374
-0.1507951 -0.075120464 -0.04051691 -0.105803855 -1.0627354 0.10926167 -0.5827032 -0.5979304
-0.3877871 0.3147621 -0.106933564 -0.23118667 0.4997135 -0.420588 0.13949719 0.65267575
1.3129865 0.1875877 0.25126 0.55758286 0.40658075 -0.56509143 -0.82157737 -0.28454465
0.4435792 -0.23305394 0.51251817 -0.49268556 -1.2560413 0.38062653 -0.6240577 -0.7967939
0.15966427 0.76458067 0.93218017 0.31250855 -2.5812786 -1.6539365 -0.29971564 -0.17018119
0.30724558 1.1431925 0.38785422 0.2861501 0.59726965 0.27747485 0.6266907 -0.20621933
-1.598304 0.0065829656 -0.25008076 0.47794017 0.06283629 0.08567273 0.52151793 0.03556975
-0.28286117 0.92407125 0.5930912 0.14850229 0.6028535 0.30074325 -0.42532966 -0.3750139
0.9076008 0.3348328 1.0350921 0.6615565 -0.88584346 0.46040758 -0.29684615 -0.4021973
-0.12149446 1.0764469 -0.88299197 -0.20555244 0.28531727 -0.23122153 0.079316474 -0.28559926
00000000: 3d0b 933e 740e 1d3d fedb 843e 9928 993e
00000010: 3488 063f 7699 4bbe c42e bd3f 4797 62be
00000020: 39e3 babe 69d0 893e 94f4 0cbf dc33 24bf
00000030: 7f21 b3be 7cd8 983e 3641 5ebf 6c76 b83f
00000040: 6e15 bebe 3a2b eb3e c60e 383f 6797 043f
00000050: 0ef3 9dbe d975 1bbf d2cb 2cbe fbf6 05bf
00000060: 5f60 4bbe 36e1 66bf 9d28 cbbd 3a18 42bd
00000070: ec81 723b b04e 04bf e7ce 13be 56bd f83f
00000080: 07ca 05bd 8ec0 47be 1240 9ebf 2320 903f
00000090: 388b af3f 3cba 6c3e 7be3 09bf 9b36 e03e
000000a0: bce4 02bf 9b94 8fbe 8d5c 75be 0ec2 b7be
000000b0: e949 40bf 227b b4be eb9a 15bf a8ad 853f
000000c0: 793f 4a3e 0bfe 0c40 d557 5c3f a101 d23c
000000d0: 75dc 5f3e ebf6 9d3d 7db1 47bf b6cc 353e
000000e0: dd15 413f 826d d13f a5dd 833e 8a94 88bf
000000f0: 71ae 32bf 3cca 053e ac3d e7be 6031 0fbf
00000100: af80 12be 91fd fc3e a692 12bf 9230 bfbd
00000110: 1712 973e 49eb 46be 1d00 dd3e 04c0 6cbe
00000120: 4edd 15bf cff6 c8be 0051 66bf 3e50 c73e
00000130: 6147 263f a815 3dbe 0d1b ae3e 54e9 563f
00000140: a6d2 25bf ba21 88bf f9c5 2cbb 9aba 84be
00000150: ae28 8c3f 4030 d23f c266 8c3d 008c 3abe
00000160: ca35 913d 1090 f43f 5da0 41bf 64e4 ef3f
00000170: 4673 d73f 016f adbe fea5 473e b9c5 813f
00000180: 9ef7 183e fcc6 653f 8961 02bd 5621 13bf
00000190: e40a 77bc 183a cd3e 71bf 1ebf 875e ae3c
000001a0: 5441 8e3e 1579 1e3f 05e0 163f d997 803e
000001b0: e0a4 bf3e ae71 f33e 2d9e 28bd ca8f 593f
000001c0: 9e77 883e 4497 6d3f 529a 983d 3bf6 a53f
000001d0: 06ba 4c3e 5846 793f 9142 3b3e de53 8abf
000001e0: b571 41bf d2f5 1d3e ede5 2f3f 596b c53f
000001f0: 3569 783f afe6 0d3f 0e70 1d3f 02ed 13bf
00000200: 20e8 bd3f e2f8 bf3e f892 4fbf 9bd3 863f
00000210: 9b6e 63be 7cd4 b73c 1faa fb3e 8d13 303f
00000220: 3cf0 1c3f 686d e8bd c68d abbd 70db dabe
00000230: 2278 60bf 5e2b 3abf 9c90 a53e c4e7 3fbf
00000240: 6fdd 833d e8fc 94be 566d 6ebf 7699 b83f
00000250: d11c f83d 6833 ee3e f29a 843e ff7c 0d3f
00000260: c953 c03e 166a 53bf e637 03bf 7977 4e3f
00000270: c6f2 053f 03eb 5ebe 9d3b 353f 690d 21be
00000280: 6a0d 6fbf 8de1 b03e 8ad5 273f 6bce 8abe
00000290: 780c 6abf 376f 103f 4547 d1bd d635 533f
000002a0: dd09 be3e 0500 3abf dc8b 023f 3a5c d83e
000002b0: 4281 59bf b157 8b3d d3f3 5ebe 0664 563f
000002c0: 086a 1abe c2d8 99bd 0ff5 25bd b1af d8bd
000002d0: b707 88bf 95c4 df3d 092c 15bf f711 19bf
000002e0: 088c c6be 7f28 a13e fcff dabd 33bc 6cbe
000002f0: 73da ff3e 4f57 d7be 5ad8 0e3e c215 273f
00000300: f10f a83f fd16 403e 27a5 803e c0bd 0e3f
00000310: 5a2b d03e d5a9 10bf e552 52bf d6af 91be
00000320: d01c e33e b1a5 6ebe 6434 033f 4841 fcbe
00000330: f6c5 a0bf 7be1 c23e 3fc2 1fbf affa 4bbf
00000340: 087f 233e 8fbb 433f 5ca3 6e3f 1f01 a03e
00000350: ab33 25c0 31b4 d3bf 5474 99be fa43 2ebe
00000360: 4b4f 9d3e 2254 923f d494 c63e 4482 923e
00000370: aae6 183f 2f11 8e3e cd6e 203f 292b 53be
00000380: 3a95 ccbf ebb5 d73b 960a 80be 93b4 f43e
00000390: 50b0 803d 2f75 af3d 3382 053f 96b1 113d
000003a0: 2ed3 90be ef8f 6c3f d3d4 173f fc10 183e
000003b0: 9b54 1a3f 05fb 993e cfc4 d9be d201 c0be
000003c0: 8758 683f 346f ab3e e67d 843f c45b 293f
000003d0: a3c6 62bf 8bba eb3e 38fc 97be ceec cdbe
000003e0: 16d2 f8bd 03c9 893f c30b 62bf 577c 52be
000003f0: 1b15 923e 56c5 6cbe ad70 a23d 113a 92be

l1.bias f4 [8]
1.5383606 0.8687816 1.5920488 0.92541784 0.5703196 1.2517288 0.79309916 0.48116902
00000000: 00e9 c43f 7968 5e3f 41c8 cb3f 2fe8 6c3f
00000010: 7700 123f a638 a03f 8c08 4b3f c95b f63e

l2.weight f4 [8, 8]
1.0970505 1.9462194 -0.055943776 -1.4304082 1.7775416 2.25504 -0.71751803 0.008632812
0.09917406 0.10316449 1.2069883 -0.31793913 1.1547941 -0.7736398 0.7214041 1.4655274
-1.7710708 0.18104097 2.6418314 0.17505169 0.90542483 1.4313446 -1.0499802 0.29644504
2.174479 0.3872563 1.7566485 1.6101091 -1.3395777 2.324321 0.8849471 -0.13998242
-1.0542158 0.6661154 -0.6386086 0.14253528 1.3603458 2.1065314 0.96958315 1.1250547
-1.8314875 2.208549 0.023097789 2.2726 -0.6665812 0.97103524 1.2924513 1.4041125
-0.29239094 -0.24555784 -0.12566505 -0.08095969 0.0817645 -0.11968703 0.020858955 -0.0005835656
1.3776261 -0.31915712 0.4128654 -0.73160577 0.16892019 -1.2988621 1.7773457 1.5917263
00000000: 276c 8c3f b81d f93f 4d25 65bd 9e17 b7bf
00000010: 7c86 e33f 9352 1040 43af 37bf a370 0d3c
00000020: c51b cb3d e747 d33d 987e 9a3f ebc8 a2be
00000030: 4bd0 933f 420d 46bf f0ad 383f 6796 bb3f
00000040: 73b2 e2bf ce62 393e c413 2940 c040 333e
00000050: ecc9 673f 4d36 b73f c065 86bf a5c7 973e
00000060: aa2a 0b40 7546 c63e dcd9 e03f 0e18 ce3f
00000070: 4877 abbf adc1 1440 e58b 623f 8d57 0fbe
00000080: 8bf0 86bf 8a86 2a3f da7b 23bf c5f4 113e
00000090: d01f ae3f 69d1 0640 9a36 783f cb01 903f
000000a0: 2f6e eabf de58 0d40 9337 bd3c 4772 1140
000000b0: 11a5 2abf c495 783f 0b6f a53f f5b9 b33f
000000c0: 44b4 95be 8473 7bbe 57ae 00be 32ce a5bd
000000d0: 2574 a73d 791e f5bd 66e0 aa3c 6dfa 18ba
000000e0: 0d56 b03f 9068 a3be 1863 d33e 844a 3bbf
000000f0: 6af9 2c3e 1d41 a6bf 1080 e33f b0bd cb3f

l2.bias f4 [8]
0.29953 0.51909244 0.42085934 1.1343048 -0.45324668 0.26758924 -0.1576782 0.15382825
00000000: ff5b 993e 3ee3 043f e07a d73e e630 913f
00000010: f30f e8be 7501 893e 6576 21be 2785 1d3e

l3.weight f4 [22, 8]
0.09367472 -0.3728404 -0.64869344 -0.6287135 -4.7026153 -0.7379629 -0.094290264 0.49213967
0.14432964 -3.9700406 -3.092371 0.17601964 -3.371472 0.061632168 -0.38738245 -0.60530615
-1.4682261 -4.3572106 0.5222263 0.18912236 -2.3403003 0.527392 -0.30269575 -2.5841146
-3.6582556 -0.71442527 -1.7625751 0.336084 -2.3486435 -1.7986073 0.10964128 0.5217658
-3.470511 -2.7087176 -0.96971923 0.5795068 -2.5213382 0.30998605 -0.022008328 -0.4096918
-1.8891227 -3.4540815 -2.7460737 0.96222895 -1.6083655 -2.4070292 -0.02671306 -0.5152388
-3.6019661 -0.17810832 0.5066355 -0.008407014 -2.2033246 -1.8759925 0.07137751 -0.522143
0.61288136 -0.18158917 0.26387727 -1.619958 -1.4780073 -2.8059795 -0.38805583 -0.33635187
-0.70417887 0.0024434605 0.6734409 -0.85217595 -4.2215886 -1.0341697 0.26407474 -1.8393084
0.5418829 -3.8800611 -1.5765815 -0.2904308 -0.5138187 -2.1394095 -0.16876034 -0.013889884
-0.57074 -2.90482 0.15595222 0.27933276 -2.643042 -2.1004632 0.1180373 -1.3824257
0.8860406 -1.9136655 -0.6807375 -2.076453 0.3737865 -0.8002519 -0.021178294 0.066086546
-0.91761476 -0.87696725 -1.7366465 -2.646525 1.0106767 0.7304065 0.13735244 0.032519266
0.20450318 0.56180173 -2.848775 -2.671019 -0.32317293 -0.29479373 0.18930411 0.7379838
-0.6434016 0.46408203 0.18041117 -2.6614468 -0.26072007 -0.30659315 0.016172037 0.6054528
0.24320978 -0.18630227 0.28112215 -4.0848994 0.22367872 -0.1629294 0.10904815 -0.32936192
0.5415168 -1.830003 0.92905563 -2.194764 -0.36306074 -0.58563685 -0.29656336 -1.5273157
0.660644 -3.5352094 -0.04219328 -0.5416978 -1.208882 0.21393558 -0.145064 -0.71164507
-0.042941947 -1.720765 0.19536293 -1.9329423 -0.2050654 0.66777986 -0.40876174 0.017495215
-1.755868 0.6492545 -3.2687702 -1.0343088 -1.6031396 -0.13681412 -0.3086723 0.91987777
-2.4217274 -0.9625065 0.04135328 -1.5525753 -0.40219536 0.56737304 -0.08770003 0.6926039
-1.2412286 -4.365008 -1.2672544 -0.34362984 -0.16857794 0.8835692 0.17314665 -0.22218636
00000000: 88d8 bf3d f0e4 bebe c610 26bf 5ef3 20bf
00000010: d37b 96c0 23eb 3cbf 411b c1bd bbf9 fb3e
00000020: 26cb 133e 2515 7ec0 68e9 45c0 7e3e 343e
00000030: 32c6 57c0 0372 7c3d fe56 c6be 58f5 1abf
00000040: d5ee bbbf 456e 8bc0 9fb0 053f 4ba9 413e
00000050: 7bc7 15c0 2a03 073f f0fa 9abe 2262 25c0
00000060: dc20 6ac0 93e4 36bf 109c e1bf 3413 ac3e
00000070: 2d50 16c0 c438 e6bf 9b8b e03d 7292 053f
00000080: da1c 5ec0 a15b 2dc0 853f 78bf 8f5a 143f
00000090: 9b5d 21c0 7eb6 9e3e cf4a b4bc 20c3 d1be
000000a0: c6ce f1bf ac0f 5dc0 acbf 2fc0 a354 763f
000000b0: ecde cdbf c40c 1ac0 59d5 dabc b1e6 03bf
000000c0: 9d86 66c0 0762 36be ddb2 013f 93bd 09bc
000000d0: 4503 0dc0 8620 f0bf 5f2e 923d 2aab 05bf
000000e0: cbe5 1c3f 83f2 39be ec1a 873e c95a cfbf
000000f0: 582f bdbf 2b95 33c0 41af c6be 5036 acbe
00000100: 1145 34bf 7722 203b 9f66 2c3f 3428 5abf
00000110: 4117 87c0 ac5f 84bf ce34 873e 756e ebbf
00000120: d6b8 0a3f ec52 78c0 6ccd c9bf 59b3 94be
00000130: 9f89 03bf 16ec 08c0 83cf 2cbe 6592 63bc
00000140: 041c 12bf 92e8 39c0 f0b1 1f3e b404 8f3e
00000150: 9a27 29c0 fd6d 06c0 8abd f13d 53f3 b0bf
00000160: 8fd3 623f fef2 f4bf d044 2ebf 9be4 04c0
00000170: f260 bf3e 4fdd 4cbf 1a7e adbc 6258 873d
00000180: cde8 6abf ed80 60bf 6f4a debf aa60 29c0
00000190: db5d 813f ecfb 3a3f 1ea6 0c3e ec32 053d
000001a0: 4869 513e 3dd2 0f3f 5452 36c0 faf1 2ac0
000001b0: ec76 a5be 34ef 96be f0d8 413e 82ec 3c3f
000001c0: f8b5 24bf 299c ed3e b5bd 383e 2555 2ac0
000001d0: 1a7d 85be c7f9 9cbe 387b 843c f4fe 1a3f
000001e0: fc0b 793e 06c6 3ebe 3eef 8f3e 7fb7 82c0
000001f0: 090c 653e f7d6 26be a354 df3d 20a2 a8be
00000200: d8a0 0a3f 8a3d eabf 97d6 6d3f 0377 0cc0
00000210: 19e3 b9be 4cec 15bf 27d7 97be 157f c3bf
00000220: f71f 293f df40 62c0 dcd2 2cbd b5ac 0abf
00000230: a5bc 9abf ee11 5b3e a88b 14be 5f2e 36bf
00000240: e5e3 2fbd 0742 dcbf 380d 483e a76a f7bf
00000250: aafc 51be 9ff3 2a3f 3849 d1be 2052 8f3c
00000260: 48c0 e0bf 8b35 263f 8833 51c0 3b64 84bf
00000270: ae33 cdbf 0019 0cbe 4c0a 9ebe 1c7d 6b3f
00000280: 95fd 1ac0 d366 76bf 0f62 293d caba c6bf
00000290: 8dec cdbe 5c3f 113f 139c b3bd 7d4e 313f
000002a0: 94e0 9ebf 25ae 8bc0 6435 a2bf 40f0 afbe
000002b0: b29f 2cbe 9731 623f 5b4d 313e d284 63be

l3.bias f4 [22]
0.40390092 -0.017482512 0.05769054 -0.026119888 -0.2906232 -0.19305365 -0.32690296 -0.039463192
-0.018015435 0.1750979 -0.5504506 0.5305061 -0.037021812 -0.042453893 -0.18810113 -0.6513179
-0.35834038 -0.15335116 -0.3288947 0.24979691 -0.08396225 0.045885887
00000000: 1acc ce3e 7c37 8fbc ea4c 6c3d 60f9 d5bc
00000010: 90cc 94be dbaf 45be d35f a7be 28a4 21bd
00000020: 1b95 93bc dd4c 333e 55ea 0cbf 3fcf 073f
00000030: 2fa4 17bd 22e4 2dbd 959d 40be c5bc 26bf
00000040: 6478 b7be 1608 1dbe e364 a8be c3ca 7f3e
00000050: 66f4 abbd d7f2 3b3d
