data.pth (torch, 16319 bytes, 6 tensors)

l1.weight f4 [8, 273]
0	0xbf8fd670	-1.1237316
1	0x3fa99c89	1.3250896
2	0x3db3067b	0.087414704
3	0x3e276e39	0.1635064
4	0x3d386984	0.045022503
5	0xbe6188e9	-0.22024883
6	0xbf1a86c4	-0.60361886
7	0xbecd43b6	-0.40090722
8	0x3f6dd7ef	0.92907614
9	0xbf2fc92b	-0.6866633
10	0xbec88f9a	-0.3917206
11	0xbee22429	-0.44168213
12	0xbf4d7519	-0.802568
13	0x3f5437cd	0.82897645
14	0xbe21f8b0	-0.15817523
15	0x3e047941	0.1293688
16	0xbf9eaa33	-1.2395691
17	0xbd8823bb	-0.0664744
18	0x3e462850	0.19351315
19	0x3f8a9219	1.0825835
20	0xbf829fda	-1.0205033
21	0x3f1eb80d	0.6199959
22	0x3f398d0e	0.7248086
23	0xbcc9b8b7	-0.024624212
24	0x3f28924b	0.65848225
25	0x3e692f37	0.22771917
26	0x3f60bb99	0.8778625
27	0xbcc22c86	-0.023702871
28	0xbed6a244	-0.41920674
29	0x3fcaac19	1.583377
30	0x3f7efb04	0.9960177
31	0x3f0f3a08	0.55947924
32	0x3dac862e	0.0842403
33	0x3edf53bc	0.43618572
34	0x3ee4b825	0.4467174
35	0x3df5c384	0.12000182
36	0x3ea10bba	0.3145426
37	0xbf7aa477	-0.97907203
38	0xbee63637	-0.44963238
39	0x3eb9ad1f	0.36264893
40	0x3f38d508	0.7220006
41	0x3f29a252	0.66263306
42	0x3ed8a215	0.4231116
43	0x3f3efeba	0.7460743
44	0x3f906922	1.1282084
45	0x3f830974	1.023726
46	0x3f882526	1.0636337
47	0x3e4a6cf3	0.19768123
48	0x3e8c8322	0.27443796
49	0xbf04c557	-0.51863617
50	0x3f404096	0.7509855
51	0x3d4ba51a	0.049718
52	0xbfcc1dad	-1.5946556
53	0xbeee6f71	-0.46569398
54	0x3fc771ec	1.5581641
55	0xbf60e910	-0.87855625
56	0x3f528ec5	0.822491
57	0x3ebe95be	0.3722362
58	0x3ee0cd4d	0.43906632
59	0x3f1ca8a5	0.6119483
60	0x3f1bc8f8	0.6085353
61	0xbc963753	-0.018336928
62	0x3f9ed668	1.2409182
63	0x3d35267a	0.044226147
64	0xbebcf20a	-0.3690341
65	0xbef73c27	-0.4828808
66	0x3ead1c47	0.33810636
67	0x3d05c2f2	0.032656617
68	0x3e875146	0.26429194
69	0xbf294c80	-0.66132355
70	0xbee018b6	-0.43768853
71	0x3e9b1521	0.30289558
72	0xbe8d210e	-0.2756428
73	0xbee60765	-0.44927517
74	0x3eb6447a	0.35599118
75	0xbe484ee7	-0.19561349
76	0x3e4a1e02	0.1973801
77	0x3e42dc44	0.19029337
78	0xbe70349a	-0.23457566
79	0x3dea8fe7	0.114532284
80	0x3eea97a3	0.45818815
81	0x3f0ba960	0.5455532
82	0x3bdcca52	0.0067379856
83	0x3d6b76e3	0.057486426
84	0x3f2e43b4	0.68072057
85	0xbdda3fd3	-0.10656705
86	0xbe41fb6d	-0.18943568
87	0x3f401d6c	0.75044894
88	0x3feeafdb	1.8647417
89	0x3f1663a7	0.5874581
90	0xbd2eef5a	-0.042708732
91	0x3d0f6a2b	0.03501336
92	0x3f1df321	0.6169911
93	0x3f1768b1	0.5914412
94	0x3ed750b3	0.42053756
95	0xbf5ea6ae	-0.86973083
96	0x3f12bc6c	0.5731876
97	0x3ec11dec	0.3771814
98	0xbf13a89a	-0.5767914
99	0x3e86d7c1	0.26336482
100	0xbf9f06c8	-1.2423944
101	0xbe939b0d	-0.28829232
102	0xbf67c45c	-0.90533996
103	0xbf6e848f	-0.9317102
104	0xbf9c125e	-1.2193105
105	0x3ecc4c72	0.39902073
106	0xbf02461e	-0.5088824
107	0xbf83e307	-1.0303658
108	0xbfa2aea3	-1.2709545
109	0x3db05462	0.08609845
110	0x3f2e1364	0.6799834
111	0x3f796212	0.9741527
112	0x3e8d1b33	0.27559814
113	0xbf6f4473	-0.9346382
114	0xbe74ccdf	-0.23906277
115	0x3eed9c0c	0.46408117
116	0x3f703ed1	0.9384585
117	0xbe892b72	-0.2679096
118	0xbf085eaa	-0.53269446
119	0x3f625c85	0.88422424
120	0x3f799b4c	0.9750259
121	0xbc10dbfa	-0.008841509
122	0x3f05069d	0.51963216
123	0xbf660ee5	-0.8986648
124	0x3d88bbce	0.06676446
125	0x3e27f7d8	0.16403139
126	0xbf209496	-0.62726724
127	0x3fb4d0b2	1.4126189
128	0x3df1fd37	0.11815875
129	0xbe3c15f9	-0.18367757
130	0xbedfbdd0	-0.43699503
131	0x3fc07d8c	1.5038314
132	0xbf9718c5	-1.1804434
133	0xbf2d4670	-0.67685604
134	0xbf540993	-0.8282711
135	0x3f8b4d09	1.0882884
136	0x3e34a7fb	0.17642204
137	0x4001ed16	2.0300956
138	0xbf290188	-0.6601796
139	0x3f0da0ed	0.5532368
140	0x3ec2424c	0.37941206
141	0xbf96dd08	-1.1786203
142	0xbefbe246	-0.4919607
143	0x3eb8560e	0.36003155
144	0xbf822665	-1.0167967
145	0x3f1aa6bc	0.60410666
146	0x3e5fe5dd	0.2186503
147	0x3f460ac0	0.77360153
148	0xbd6b1bae	-0.057399444
149	0xbe3ba284	-0.18323714
150	0x3fa579e3	1.2927822
151	0x3d375941	0.044762854
152	0xbf425d77	-0.75923866
153	0xbf86f33d	-1.054298
154	0x3d3f9ff5	0.046783406
155	0x3f10bed5	0.56541187
156	0x3f0ec0b9	0.5576282
157	0xbc8fef64	-0.017570205
158	0x3f4d0050	0.800786
159	0xbed92c25	-0.42416492
160	0x3ea3a7cc	0.31963956
161	0x3ec6ea52	0.38850647
162	0x3eb6d949	0.3571265
163	0x3debd7e5	0.11515788
164	0xbf72d52a	-0.9485651
165	0xbe754268	-0.23951113
166	0x3f1b18c1	0.60584646
167	0x3f2b9a6c	0.67032504
168	0x3e914cc4	0.2837888
169	0xbf33b8fa	-0.70204127
170	0x3fb3d830	1.405035
171	0x3f2cfdc1	0.675747
172	0x3e829940	0.25507545
173	0x3e97eb44	0.2967168
174	0x3ebf1470	0.3732028
175	0x3e5e04b0	0.21681476
176	0x3ee5c292	0.44875008
177	0xbf893a33	-1.0720886
178	0x3e908692	0.2822767
179	0x3e0748e8	0.13211405
180	0x3ec5d075	0.38635603
181	0xbe821df3	-0.25413474
182	0xbee2565d	-0.44206515
183	0x3ea55ebb	0.32298836
184	0xbf2fb7af	-0.68639654
185	0x3f106a7e	0.56412494
186	0xbf52ada9	-0.82296234
187	0x3f44f23d	0.76932126
188	0x3f3ea0c5	0.74464065
189	0x3f9a8074	1.2070451
190	0xc0170a48	-2.3600025
191	0x3ea61ee2	0.32445437
192	0xbedb2da8	-0.4280827
193	0xbe9a4645	-0.30131736
194	0xbf1e4f94	-0.61840177
195	0x3ea65ea9	0.32494095
196	0x3eac1d16	0.3361594
197	0x3f1ab011	0.60424906
198	0xbf3f19c9	-0.7464872
199	0xbf1ce35d	-0.6128443
200	0x3ee5a7f8	0.44854712
201	0x3ec0aeb6	0.37633294
202	0xbe1917fa	-0.14950553
203	0xbf05fbac	-0.52337146
204	0xbe91582e	-0.28387588
205	0x3f2738ac	0.6532085
206	0x3f112354	0.5669453
207	0xbf3b4ad7	-0.7316107
208	0x3f36c34e	0.7139176
209	0xbf0cb975	-0.54970485
210	0x3e845fb7	0.25854275
211	0xbe5d0b76	-0.21586403
212	0xbe6fcaad	-0.23417158
213	0x3d850143	0.06494381
214	0x3f0a8deb	0.541228
215	0x3f27eea2	0.655985
216	0x3e84cc9c	0.25937355
217	0x3dd40d2f	0.10354077
218	0x3eb68573	0.3564869
219	0x3df7ad3c	0.12093589
220	0xbf7a3903	-0.9774324
221	0x3e81b201	0.2533112
222	0x3f08eef1	0.53489596
223	0x3e8fbade	0.28072256
224	0xbedf2582	-0.43583304
225	0x3f48b594	0.78402066
226	0x3f7b55b2	0.98177636
227	0x3f5c6e87	0.8610615
228	0x3f26d206	0.6516422
229	0xbfc54f5f	-1.5414847
230	0xbdf5c6e6	-0.120008275
231	0xbe315f43	-0.17321496
232	0x3f4abc98	0.7919402
233	0xbdeba8da	-0.11506815
234	0xbf9863d2	-1.1905463
235	0x3e97da6e	0.29658836
236	0x3fa9d076	1.3266742
237	0x3facef82	1.3510592
238	0x3eaf0dc4	0.3419019
239	0x3f16aa53	0.58853644
240	0xbef31bfd	-0.4748229
241	0xbe619d07	-0.22032557
242	0x3dbe4896	0.092911884
243	0xbe4551c9	-0.1926948
244	0x3f08412b	0.5322444
245	0xbd8c34d3	-0.06846013
246	0xbf440ac9	-0.76578957
247	0x3ef5a344	0.47976124
248	0x3f110d78	0.56661177
249	0x3f1eb335	0.619922
250	0x3f194b87	0.5988087
251	0xbe77bd88	-0.24193394
252	0x3ee89525	0.45426288
253	0x3f1dcb18	0.6163802
254	0x3e8bc718	0.27300334
255	0x3ee3a42c	0.4446119

l1.bias f4 [8]
0	0x3f20ac7e	0.627632
1	0x3e4d6340	0.20057392
2	0x3ef40218	0.47657847
3	0x3edb3729	0.4281552
4	0x3f6f48a5	0.9347022
5	0x3fb92960	1.4465752
6	0x3fa2af95	1.2709833
7	0x3e6d5d67	0.23180161

l2.weight f4 [8, 8]
0	0x3ed8d7e6	0.42352217
1	0x3d824395	0.063605465
2	0x3faddaad	1.358236
3	0x3f10588e	0.56385124
4	0x3f8b0e5c	1.0863757
5	0x4025fda5	2.5936062
6	0xbf7eafa4	-0.99486756
7	0x400127bc	2.0180502
8	0xbec18390	-0.37795687
9	0x3c6a352e	0.014294906
10	0x3e51c760	0.20486212
11	0x3fb79d5a	1.4344895
12	0x402cfd5d	2.702964
13	0xbefbb409	-0.49160793
14	0x3e56f041	0.20990087
15	0xbf529bde	-0.82269084
16	0x3f72ddb2	0.9486953
17	0x3eec5dd6	0.4616534
18	0xbf2e11b2	-0.6799575
19	0xbf46bee8	-0.7763505
20	0x3f9197d5	1.137446
21	0x3fb94d5a	1.4476731
22	0xbd4e4854	-0.050361946
23	0xbfd95056	-1.6977642
24	0xbfb8abfd	-1.4427487
25	0x3f7ae8d1	0.980115
26	0x3f24b477	0.6433787
27	0xbf00dc70	-0.5033636
28	0x3d9e7ec0	0.077390194
29	0x3e5cacfd	0.21550365
30	0x40180a93	2.3756454
31	0xbefc380e	-0.49261516
32	0x3f913a75	1.1345965
33	0x3ffdb85a	1.9821885
34	0x3cb4e542	0.022081975
35	0xbf547dab	-0.83004254
36	0x3f92eed9	1.147914
37	0x3e4f02a7	0.20215856
38	0x3d104605	0.035223026
39	0xbe809102	-0.25110632
40	0xc01cd51e	-2.4505076
41	0x3fa868e1	1.3157007
42	0x3ef1a40d	0.47195473
43	0x3e8de7b9	0.27715853
44	0x3ea8804e	0.3291039
45	0xbebd83d5	-0.37014642
46	0x3f8dcb50	1.1077671
47	0xbe1175bc	-0.14205068
48	0x40215ac0	2.521164
49	0x3fc9a7d5	1.5754343
50	0x3f626395	0.884332
51	0x3fe4f518	1.7887297
52	0xbf67883b	-0.90442246
53	0xbf945d01	-1.1590883
54	0x3fba6cc1	1.4564439
55	0x3e8cf1e8	0.2752831
56	0x3fd1f8f2	1.6404097
57	0xbe7e5850	-0.24838376
58	0xbfaa3abb	-1.3299173
59	0xbf82b787	-1.0212258
60	0x3f7d19ed	0.98867685
61	0x3dc19362	0.09451939
62	0x3ff62ce8	1.9232454
63	0xbffd0e36	-1.9769962

l2.bias f4 [8]
0	0x3edd666a	0.43242198
1	0xbf493a54	-0.78604627
2	0x3f65183a	0.8949009
3	0x3fbeac9d	1.4896427
4	0xbfdfd93e	-1.7488172
5	0xbf881cc2	-1.0633776
6	0xbe66396a	-0.22482839
7	0x3f32ad7f	0.69795984

l3.weight f4 [27, 8]
0	0x3e57499e	0.21024176
1	0x3e4d2e34	0.20037156
2	0xbe8bf146	-0.27332515
3	0x3f3a6a91	0.7281886
4	0xc05d814f	-3.4610174
5	0x3ec51519	0.3849266
6	0xbfb42037	-1.4072331
7	0xc0406c76	-3.00662
8	0x3f04bb53	0.51848334
9	0xc060b2d6	-3.5109153
10	0x3e36fdd0	0.1787026
11	0x3ef2b2fb	0.47402176
12	0xc0883fdf	-4.257797
13	0xc02948de	-2.6450725
14	0xbd52c4fb	-0.051457386
15	0xc046af1e	-3.1044383
16	0xbf34736e	-0.7048863
17	0xbe9223d1	-0.2854295
18	0x3ef4eaf9	0.4783552
19	0xbe617fe0	-0.22021437
20	0xbfbf4d99	-1.4945556
21	0xc08125e8	-4.035877
22	0xc00ddfcc	-2.2167845
23	0x3d4f0fd9	0.050552223
24	0xbd7d4b56	-0.061839424
25	0xc012b3b2	-2.2922177
26	0xc05b528e	-3.4269137
27	0x3f1eedcb	0.62081593
28	0xbffc5f77	-1.9716634
29	0x3ec862f1	0.39137986
30	0x3e2aa882	0.16665843
31	0xc0a8224b	-5.254186
32	0xbeb3db65	-0.35128322
33	0xc0a3088a	-5.0947924
34	0xbdc36568	-0.09540826
35	0xbee89b01	-0.4543076
36	0xbf90a26b	-1.1299566
37	0xbfd0e166	-1.6318786
38	0xbd5aa449	-0.05337933
39	0xbecd4dfd	-0.40098563
40	0x3f5d823e	0.8652686
41	0xbf8047b9	-1.0021888
42	0x3ed6ffb2	0.41991955
43	0xbfa17a5c	-1.2615466
44	0xbf8f9dd6	-1.1220043
45	0xbff8e9ef	-1.9446391
46	0xbffd4e10	-1.9789448
47	0xc02283d7	-2.5392969
48	0xbf9628c5	-1.1731192
49	0xbffb2f84	-1.9623876
50	0xbfc3c2fd	-1.5293881
51	0x3f010f1d	0.50413686
52	0xc05959dc	-3.3961096
53	0xbdb7521e	-0.089512095
54	0x3f3c85a1	0.736414
55	0xbf8a53bb	-1.0806803
56	0x3d6271bd	0.05528425
57	0xc002e0b7	-2.0449655
58	0x3ef09b86	0.46993655
59	0x3e30d2b7	0.17267881
60	0xc077d4f5	-3.8723729
61	0xbf5f5ed0	-0.8725405
62	0xc0451f45	-3.0800335
63	0xbecf4182	-0.40479666
64	0xbfb9463b	-1.4474558
65	0xbf9c73a1	-1.2222787
66	0x3e99e415	0.30056825
67	0x3decb384	0.115576774
68	0xc0f0a2dd	-7.519881
69	0xc088c678	-4.274227
70	0x3da4fdb3	0.08056202
71	0x3e10e52b	0.1414992
72	0xc01e40c7	-2.4727037
73	0xc0ab3d6c	-5.351248
74	0xbf088ea2	-0.5334264
75	0x3f1cf780	0.61315155
76	0xc0464478	-3.097929
77	0xbd65815a	-0.056031562
78	0xbf513b10	-0.8173075
79	0x3eaec728	0.3413632
80	0x3cdaac25	0.026693413
81	0xc0741bb4	-3.8141909
82	0x3e7d4a12	0.24735287
83	0xc0898e37	-4.29861
84	0xbf22d778	-0.6361003
85	0xbfd7be0c	-1.6854873
86	0xbfc309b2	-1.5237334
87	0x3ec4d1c0	0.38441277
88	0x3e2a6eb4	0.16643792
89	0xbfe69d7f	-1.8016814
90	0x3e5f879e	0.21829078
91	0xc03ade51	-2.919819
92	0x3ef2d981	0.47431567
93	0xbfe59d75	-1.7938677
94	0xbe01ba05	-0.12668617
95	0xc00a2f86	-2.1591506
96	0xbfee5df4	-1.8622422
97	0xc036dd93	-2.8572738
98	0xbd23c538	-0.039983004
99	0x3f1c41d4	0.61037946
100	0xbe0a48f0	-0.13504386
101	0x3ea862e2	0.32887942
102	0xbeacdcbb	-0.33762154
103	0xbf68cd45	-0.90938216
104	0x3e629ee2	0.22130921
105	0xbfbf6c4f	-1.4954928
106	0x3e33ceac	0.17559308
107	0xbe8e9471	-0.27847627
108	0x3ea12267	0.3147156
109	0x3c8d4df7	0.01724909
110	0xbf1d328d	-0.6140526
111	0xc0139561	-2.3059924
112	0x3e6a7f08	0.22900021
113	0x3d587a72	0.052851148
114	0xbf168737	-0.5880007
115	0xbec38f36	-0.381952
116	0x3edfd604	0.43717968
117	0x3f07c87a	0.5304028
118	0xbf19beba	-0.6005665
119	0xc0a16b94	-5.044382
120	0x3f510198	0.81643057
121	0x3f62db7c	0.88616157
122	0xbf731434	-0.949527
123	0xc03e54ae	-2.9739184
124	0xbf56e4e3	-0.83943003
125	0xbd940d12	-0.072290555
126	0xbfb0093b	-1.3752817
127	0xc0ac352f	-5.381492
128	0x3e3913a7	0.18073903
129	0x3f050a46	0.519688
130	0x3e7c581b	0.24642985
131	0xc03bfa3b	-2.9371479
132	0x3e5d4c65	0.21611173
133	0xbfa2cc14	-1.271853
134	0xc0204d95	-2.5047352
135	0xbfd571a3	-1.6675304
136	0xbe54ae84	-0.20769697
137	0x3f0f1491	0.55890757
138	0xbe2dccb5	-0.16972621
139	0xbfc39190	-1.5278797
140	0xbf7ec459	-0.9951835
141	0xbf193132	-0.5984069
142	0x3e91480d	0.28375283
143	0xc04eba13	-3.230107
144	0xc0000fcf	-2.0009649
145	0xc023ce98	-2.5594845
146	0x3ea872b8	0.32900023
147	0xbfbf97c7	-1.4968194
148	0x3ed2c446	0.4116537
149	0xbf4dc0c2	-0.8037225
150	0xbd069bab	-0.0328633
151	0xbed7b843	-0.42132768
152	0xbfe1714b	-1.7612699
153	0xbeaee34c	-0.3415779
154	0xbe9c9ce0	-0.30588436
155	0x3d353c01	0.044246677
156	0xbf7995e4	-0.9749434
157	0x3ed0661e	0.4070291
158	0x3f0ae1d1	0.5425082
159	0xc0024a53	-2.0357864
160	0xbf819014	-1.0122094
161	0x3ef21eb4	0.4728905
162	0xbff2a0dd	-1.8955342
163	0x3ed3ec4c	0.41391218
164	0xbf39bc83	-0.7255327
165	0x3f20f585	0.62874633
166	0x3dc63100	0.09677315
167	0xc09372e9	-4.607777
168	0xbf312098	-0.6919036
169	0xbfe83357	-1.8140668
170	0xbf596ec1	-0.8493462
171	0xbf6c58af	-0.9232282
172	0x3e5135cf	0.20430683
173	0xbed374ff	-0.41300198
174	0x3f5422c4	0.8286555
175	0xc02680fa	-2.601622
176	0xc05273ff	-3.2883298
177	0xbdd1813a	-0.10229726
178	0xbf069db6	-0.525844
179	0x3e902f83	0.2816125
180	0xc08151cd	-4.0412354
181	0xbdbfcffc	-0.09365842
182	0xbfa224ff	-1.266754
183	0xbea65515	-0.32486787
184	0xbf49fa90	-0.78897953
185	0x3e0b919b	0.13629763
186	0xbecee5d1	-0.4040971
187	0xbdf0bbc0	-0.117545605
188	0xbf13f7da	-0.57800066
189	0x3e4b9248	0.1988002
190	0xc04e5476	-3.223905
191	0xbf8281d3	-1.0195869
192	0xc06e375c	-3.7221289
193	0xc019af60	-2.401329
194	0xbf321b89	-0.69573265
195	0xbe2db781	-0.16964532
196	0xbfb0ae9b	-1.3803285
197	0xbf9a7217	-1.2066067
198	0xbe019d03	-0.12657551
199	0x3eda86b7	0.42680904
200	0x3f24543e	0.64191043
201	0xbfa881ba	-1.316459
202	0xc014de7a	-2.326079
203	0xc0264c38	-2.598402
204	0xbe6c20f9	-0.23059453
205	0xbf11f84f	-0.57019514
206	0x3f086664	0.53281236
207	0xc0922ac7	-4.567722
208	0x3eca0c87	0.39462683
209	0x3eb0320e	0.3441319
210	0xc031029b	-2.765784
211	0xbf9cd351	-1.2251989
212	0xc0257ec2	-2.5858617
213	0x3ee58d46	0.44834346
214	0x3da79223	0.0818217
215	0xc0abb624	-5.365984

l3.bias f4 [27]
0	0x3f80e783	1.0070652
1	0x3e9c4b70	0.30526304
2	0x3f1533b6	0.5828203
3	0x3d878179	0.06616492
4	0x3ee912b5	0.45522085
5	0x3da9dade	0.08293699
6	0x3e7b95cf	0.24568866
7	0xbeb8441f	-0.35989472
8	0xbd77005b	-0.060303073
9	0x3e08755e	0.13326022
10	0x3ee7ae93	0.45250377
11	0xbe39359b	-0.18086855
12	0xbf21390f	-0.6297769
13	0xbe68c84a	-0.22732654
14	0xbf48f7e4	-0.7850325
15	0xbe3a0cd4	-0.18168956
16	0xbde02367	-0.109442525
17	0x3efd1056	0.49426526
18	0xbf0e6672	-0.5562507
19	0xbed75301	-0.42055514
20	0xbee820d6	-0.45337552
21	0xbe24933a	-0.16071787
22	0xbd9f04ca	-0.07764585
23	0xbf3e0bbd	-0.7423666
24	0xbe8e2c1c	-0.27768028
25	0xbe7fe05a	-0.24987927
26	0xbdfa1710	-0.1221143
